hey_jarvis_v2.tflite (tflite, 206964 bytes, 9 tensors)

arith.constant f4 [1, 32]
000000 91 3d 79 3e f9 ea 06 3e 2c 3d b3 be 02 65 b7 3d
       0.24339892 0.13175572 -0.35007608 0.089548126
000010 2c 6b a6 be f2 03 9b 3d fa f8 a5 3d 2f 77 b3 be
       -0.3250364 0.07569112 0.08104129 -0.35051867
000020 c7 42 08 3e c1 83 89 3c 5c 7b aa be 75 75 b2 be
       0.13306724 0.016786458 -0.3329724 -0.34855238
000030 93 f9 ad be 1f 5a 12 3e 59 96 3b 3e 31 a4 af be
       -0.33979473 0.14292191 0.18319072 -0.34304956
000040 d2 1c 65 3d d5 4c c6 3d 91 3d 78 3e 84 cb 91 bd
       0.05593569 0.09682623 0.24242236 -0.07118896
000050 cb ce af be 22 a3 aa be 8a 73 83 3e fe b7 5f 3e
       -0.34337458 -0.33327585 0.25674087 0.21847531
000060 63 f0 01 3e d2 ce be 3d bb dc aa be fb a9 38 3d
       0.12689357 0.093167916 -0.3337153 0.04508398
000070 9b 96 29 3e ad 00 a3 3e d0 6f af be 69 4d 77 3e
       0.16561358 0.31836453 -0.34264994 0.24150623

arith.constant1 f4 [32, 32]
000000 d7 a5 80 3d 3b f8 54 bb a2 97 0b bd f2 af d2 bd
       0.062816314 -0.003249659 -0.034080155 -0.10287465
000010 c0 58 24 3e f2 3e 17 3e 6d ee 87 bd b9 96 2b 3d
       0.1604948 0.14770105 -0.06637273 0.041891787
000020 c8 06 14 bd 14 5d e9 bc 52 09 87 3c e9 dd c8 bd
       -0.03613928 -0.028486766 0.016483936 -0.09807951
000030 a5 a4 f4 3d f1 f3 e9 bc ea a8 a5 bd f3 80 c6 3c
       0.11945466 -0.028558703 -0.080888584 0.02423141
000040 4c 5a 28 3d b3 eb 71 bc 0a bf e9 bc 0d 82 42 bd
       0.04110174 -0.014765668 -0.028533477 -0.047487307
000050 99 61 e1 bd fa 4a 83 3d 97 d6 2d 3e cd 2e c3 3c
       -0.110049434 0.06410785 0.16976391 0.023826027
000060 41 02 84 3d f4 82 72 3d d7 a2 41 3e bf e4 a8 3b
       0.064457424 0.059206918 0.18909775 0.005154222
000070 93 5b 10 3d c5 0c 04 3d 99 8f e0 bd 84 c2 1e bd
       0.035243582 0.03223874 -0.10964889 -0.038759723
000080 73 5c 0b be 99 56 85 bd b7 e5 bf bd db d1 04 3e
       -0.13609485 -0.06510658 -0.093699865 0.12970679
000090 eb 9d 43 bc 57 41 0b 3e 5b 10 02 be e1 1a 8f bb
       -0.011939506 0.13599144 -0.12701552 -0.004367218
0000a0 35 60 95 3d 50 a0 ac 3d f0 c9 e1 bd ed 20 81 3d
       0.07293741 0.08429015 -0.11024845 0.06305108
0000b0 0c 03 1b 3e b4 79 11 be 59 2f 04 3e 03 98 17 3e
       0.15137881 -0.14206582 0.12908687 0.14804082
0000c0 92 b5 3c be be 40 f5 3d c9 1f 0f 3e 96 3e 60 bd
       -0.18428639 0.11975239 0.13976969 -0.054747187
0000d0 c8 36 9a bc a9 6e 35 3e 71 79 a3 bd 97 57 0e 3e
       -0.01882495 0.17717995 -0.079821475 0.139006
0000e0 4f ce 24 3e 2e 33 6a bd 0a 9a 2b bd b8 05 45 3d
       0.16094325 -0.057177715 -0.04189495 0.048101157
0000f0 89 44 92 bd 69 e9 fa 3d 97 86 1b 3c c2 b5 f6 3d
       -0.07141978 0.12251551 0.009492538 0.12046386
000100 d2 67 bc 3d 35 aa 1b 3e 2c 17 dc 3b cd 79 93 3c
       0.0919949 0.15201648 0.0067166295 0.018002415
000110 31 50 cf 3d d8 1d 78 bd b5 3b 9d 3d de 5c e1 bd
       0.10122717 -0.060575336 0.07677404 -0.11004041
000120 f9 ec e5 3c 99 f6 3a 3d f4 cd 4b bd e4 64 6b bd
       0.028067099 0.04564533 -0.04975696 -0.057469264
000130 84 1e db bd 29 97 28 be ce 55 ef 3d 05 e7 4d 3d
       -0.1069918 -0.16463913 0.11686288 0.050269146
000140 0f 4e 98 bd c2 68 ce 3d 91 59 48 3d 61 56 27 3e
       -0.074367635 0.10078575 0.048913542 0.16341545
000150 5d 4e ed 3d e7 aa fe 3d 39 2c 1c 3c e0 57 35 3e
       0.11587212 0.12434941 0.009532028 0.17709303
000160 52 dd 9f 3c 50 41 c0 3d 85 37 25 bd b2 ad d9 bd
       0.019514713 0.09387457 -0.04033615 -0.10628833
000170 f6 05 c9 bd 4e a4 01 be ad ad 9a 3c f2 10 2b 3d
       -0.0981559 -0.12660334 0.018881643 0.041764207
000180 a9 2c 52 3d 04 ba cf 3d be 5f 22 be 2a 3c af bd
       0.051312122 0.101429015 -0.15856835 -0.08556397
000190 51 fb 37 3c 95 1a cf 3d b4 dd 8d ba d6 a5 c7 bd
       0.011229352 0.10112492 -0.0010823519 -0.097484276
0001a0 d3 3f f7 3c 83 d9 df 3d c6 ca 84 3d 6e 4c ca 3d
       0.030181801 0.10930159 0.064839885 0.09877859
0001b0 f3 76 24 3e d8 20 18 3c ab 84 79 bc 03 4c 06 3e
       0.16061 0.009285174 -0.015229384 0.13114934
0001c0 41 31 8d 3d a9 14 30 3e 40 02 01 be c3 e0 ca bd
       0.0689416 0.17195381 -0.12598515 -0.09906151
0001d0 96 27 29 3e c3 30 2c bd f6 47 92 bc e7 61 d3 3d
       0.16519007 -0.04203869 -0.01785658 0.10321408
0001e0 f3 f7 0e 3e 9f 3e 37 3e 11 ea 37 3d 36 0f 1a 3e
       0.13961773 0.17894982 0.044900957 0.15044865
0001f0 91 7b d2 3d 22 79 b3 bd 4f 82 ec bd 8b e3 e3 3d
       0.10277475 -0.087633386 -0.11548292 0.11127385
000200 5d 92 31 3e cd a3 b9 bd ce a7 35 3c 55 a4 10 3e
       0.1734099 -0.09064446 0.011087371 0.14125188
000210 50 06 2a be ad 0a 44 be 5d f3 15 3e 00 f2 b1 3d
       -0.1660397 -0.19144697 0.14643617 0.08688736
000220 70 e6 ff bd 68 03 06 be 7c 98 bc bd 06 6b 50 3c
       -0.12495124 -0.13087237 -0.092087716 0.012720829
000230 4c 53 bc 3d af 53 3b be b6 54 d1 bd 77 5c d0 3d
       0.09195575 -0.18293642 -0.102212355 0.10173886
000240 df 79 18 be e4 47 99 3d 2a 59 34 3e 6e ae c8 3d
       -0.1489024 0.07484415 0.17612138 0.09798895
000250 a6 5a 38 3e 61 b8 0f 3e 63 fd f7 3a b8 02 60 bc
       0.1800333 0.14035179 0.001892012 -0.013672523
000260 2c 3d aa 3d ed 5d df bd 82 ba e2 bd f4 01 fa bd
       0.08312449 -0.10906587 -0.1107073 -0.12207404
000270 a5 04 b5 3d 2c a6 bb bc 87 19 ad 3d c2 01 65 bd
       0.088387765 -0.022906385 0.084521346 -0.05590988
000280 9e e3 dc bd 82 47 bb 3d 7c cf e8 bd 37 18 9f bd
       -0.10785602 0.091444984 -0.113676995 -0.077682905
000290 95 8e 04 be 0e 4b 5a 3d 6f 9d 1d bd c4 c1 15 bd
       -0.12945016 0.053294234 -0.03848022 -0.036561742
0002a0 b6 a8 8f bd 85 3a ee 3d f8 ee b6 3d e7 fb b6 3d
       -0.07014601 0.116322555 0.089322984 0.08934765
0002b0 7c 3b 08 3e 10 8f 98 3c 67 7f 98 3d 0b cc 03 3e
       0.13303941 0.018622905 0.07446175 0.12870805
0002c0 26 e4 29 3d 04 86 29 3d c3 9e 60 3d f7 24 3f 3b
       0.041477345 0.041387573 0.054838907 0.002916632
0002d0 60 ea 0c 3e 0b b3 51 bd 1c f2 64 bd 1d 79 1a be
       0.13761282 -0.05119614 -0.055894956 -0.15085264
0002e0 94 e3 91 3c 36 56 6f 3d c5 c1 96 3b 36 2a bd 3d
       0.017808713 0.058431827 0.004600736 0.09236567
0002f0 56 83 e2 bd d4 81 6d 3c 2b 73 0a be ff 4c 62 3d
       -0.110602066 0.0144962855 -0.13520496 0.05524921
000300 1d 29 aa bd f6 e0 da 3d b9 a0 0b bd 52 41 31 be
       -0.08308623 0.10687439 -0.034088824 -0.17310074
000310 b0 58 f8 3c 25 ea 3e 3e da ad ff bd a5 dd 6c 3c
       0.030315727 0.18644007 -0.124843314 0.014457141
000320 77 35 85 3c db bb 1d 3e ca 16 c9 bd c8 84 1d be
       0.016260846 0.15403692 -0.098188 -0.15382683
000330 3d be 67 3d 8c b7 21 3e 14 e4 15 3e 00 ba 8c 3d
       0.05657791 0.15792674 0.14637786 0.06871414
000340 ae cf f6 3d 72 b8 02 3d e3 29 cd bd 06 e0 b7 3c
       0.120513305 0.031914182 -0.10017755 0.02244569
000350 c6 7b 5f bd 40 4f b0 3d a4 25 1d 3e 31 a5 c6 3d
       -0.0545614 0.08608866 0.1534639 0.096994765
000360 56 5f eb 3d a0 0d 11 bd 04 e4 da 3d 29 39 1d 3e
       0.11492793 -0.035413384 0.10688022 0.15353836
000370 4d 02 6e 3d 7c 1e 84 bd 5e b1 e9 3d ec c3 88 3d
       0.058107663 -0.06451127 0.11410783 0.06677994
000380 9a 08 fe 3c 77 64 15 bc ca 69 9d 3d 40 61 92 bd
       0.03100996 -0.009118191 0.07686193 -0.07147455
000390 80 c2 b3 bd ee 73 ff bd 8a 93 3b 3d 9d 76 33 bd
       -0.08777332 -0.12473284 0.045795 -0.04381429
0003a0 3c a4 17 3e 82 13 49 3d ff a4 93 bd 27 99 9d bc
       0.14808744 0.04909087 -0.07209205 -0.019238068
0003b0 29 e4 9a 3d ac 0f dd bd b5 e8 d9 bd 73 d9 d8 bd
       0.07563049 -0.10794005 -0.106400885 -0.1058835
0003c0 d8 44 1f 3e f9 43 ed bc c8 44 c0 3d 67 d0 98 bd
       0.15553606 -0.028963076 0.09388119 -0.074616246
0003d0 4e 14 0a 3e e5 25 36 be b7 5c de 3d ee a4 1e be
       0.13484308 -0.17787893 0.10857528 -0.15492603
0003e0 72 3e 8c bd 0a 89 3e 3e 44 16 b3 3c b0 e9 65 bd
       -0.06847848 0.18606964 0.021861203 -0.056131065
0003f0 43 ba ec bd 1e c4 03 be 60 db 25 3e 8a 68 fe 3c
       -0.11558964 -0.12867782 0.16196966 0.031055707

arith.constant2 f4 [32, 1536]
000000 4e 86 80 b8 f1 fc 18 3c 97 4d 27 bc a3 a6 30 3d
       -6.128532e-05 0.00933765 -0.01021137 0.043127667
000010 c9 52 c6 3b 91 67 cb 3c f8 46 69 3c 77 3a 51 3c
       0.006052349 0.024829658 0.014238112 0.012770287
000020 4b cc 38 3c 78 7e 30 3c d7 3a a6 bc a2 9d 0c 3b
       0.011279176 0.01077234 -0.020291729 0.0021456261
000030 32 9b 20 bb ec 4d 69 bc 28 1c 22 3b 41 54 53 bc
       -0.0024506566 -0.014239769 0.002473602 -0.012898506
000040 bd 12 0e bc ef 17 03 bd 3e 16 1b 3c d5 35 c9 bb
       -0.00867146 -0.032005247 0.009465752 -0.0061404505
000050 67 c4 e3 bb 95 18 b3 3c 39 59 39 bc 68 72 41 bc
       -0.006950903 0.021862308 -0.011312776 -0.011807062
000060 b2 17 51 3c 4c cc 6b 3c ae 6c 6e 3c 78 62 ae 3c
       0.012761997 0.01439197 0.014552278 0.021287188
000070 0a 7b 0a 3c 55 63 d0 bb 1a 85 74 bc 16 b0 49 3c
       0.008452186 -0.0063594976 -0.014924312 0.012310049
000080 20 e7 a3 bc 9b ef 32 3b 0f b6 d1 3c bf 4a 45 3a
       -0.02000767 0.002730346 0.025599508 0.00075260916
000090 2d 66 3e 3c 18 eb 5b bb 9c f4 58 bb f0 0b 62 3c
       0.01162104 -0.0033556875 -0.0033104783 0.013796791
0000a0 e4 fb db bb a4 2a 03 bd a3 e6 85 bb bf fa c7 b9
       -0.0067133773 -0.032023087 -0.004086332 -0.00038143058
0000b0 dd 8b 44 bc 80 89 42 3c bf 49 ad bc e0 8f 53 3c
       -0.011996237 0.011873603 -0.021153329 0.01291272
0000c0 77 ca cb 3c d1 1c 93 bb 5f 15 db bc e2 89 f0 3a
       0.024876816 -0.004489519 -0.026743589 0.0018351639
0000d0 b2 9d 96 3c e0 73 ff bc c4 4d d1 3b 90 a9 46 bc
       0.018385742 -0.031183183 0.006387444 -0.012125388
0000e0 5a c3 b2 ba d0 89 95 3c 08 3d 81 3c 21 52 b5 3c
       -0.0013638542 0.01825419 0.015776172 0.022133889
0000f0 af 65 03 bc c2 98 d7 bb 95 00 c3 bb b3 c8 8b bc
       -0.008019849 -0.0065794894 -0.005950997 -0.017063474
000100 5c 25 c1 bb 7c 4f 4f 3c 8f 1e 83 bc 4d 79 ee bb
       -0.005894346 0.012653228 -0.016005782 -0.007277644
000110 5a a0 a6 3b ac a8 dc bc d1 91 ac 3b 4f 62 86 3a
       0.0050850334 -0.026935898 0.005266406 0.0010252687
000120 7e 91 99 bc 3d 50 4e bc 37 61 c3 3c ca aa b9 3c
       -0.018746134 -0.0125923725 0.023850067 0.022664446
000130 e0 e8 8c bc 67 ee 3d 3c e0 0c a8 bc 27 8f 2c 3c
       -0.017200887 0.011592484 -0.020513952 0.010532177
000140 52 d4 8c 3b d0 99 1e bc 07 5e b4 3c 8b 62 a3 3c
       0.0042977715 -0.009680226 0.022017492 0.01994445
000150 d6 70 db bb 62 b8 44 3c 8f e1 bf 3b 6e dc 38 3b
       -0.0066968007 0.012006851 0.005855746 0.0028207558
000160 39 f2 e1 ba 44 a3 73 bc 9a 63 11 bc 80 50 05 3c
       -0.0017238326 -0.0148704685 -0.0088738445 0.0081368685
000170 e0 5b 4d 3c cc 67 8f 3b 05 99 6f ba 35 9f be 3a
       0.012534112 0.004376387 -0.0009139928 0.0014543297
000180 ba 7a 8f bb b5 5e 7e bc b8 44 bd bb 68 33 17 3d
       -0.004378644 -0.01552551 -0.005776014 0.03691426
000190 36 a2 88 bc 4a 97 c3 3c b2 7c 91 bc b0 14 43 3c
       -0.01667891 0.023875851 -0.017759655 0.011906788
0001a0 68 24 ba 3c 3f fe 9a 3c f8 cb c9 bc ae a8 4d bc
       0.022722438 0.018920062 -0.024633393 -0.012552423
0001b0 2e a8 69 b8 54 d7 d0 bb b7 5c ce bb 47 a6 68 3b
       -5.570816e-05 -0.0063733254 -0.0062976736 0.00354995
0001c0 48 49 8e bc e6 39 d1 bc e7 5b 19 bc 46 e3 28 bc
       -0.017368928 -0.025540303 -0.00936029 -0.010308092
0001d0 cb 8a c9 3b 25 16 35 3c 0b da f6 3b 6e ba 5f 3c
       0.0061505786 0.011052643 0.007533317 0.013655288
0001e0 2c 35 cc bc 5d 7e 27 3c c2 a7 31 bc d4 b5 71 3b
       -0.024927698 0.010222998 -0.010843219 0.003688206
0001f0 48 ff 2f 3c 80 92 b7 3c 5a b8 90 bc 7b 14 d2 3c
       0.010742016 0.022408724 -0.01766603 0.025644531
000200 9b dc af bc cd 3d ce 3c 2c 96 8e 3c a7 f9 43 bc
       -0.021467498 0.025175953 0.017405592 -0.011961377
000210 c3 1d 4a bc 0c 9e da 3b 2c 81 11 bc ec 08 40 3b
       -0.012336197 0.0066716727 -0.008880895 0.0029302193
000220 6b 7a ab bc 0e 65 7c bc a4 46 0c 3c 03 94 51 bb
       -0.020932397 -0.015404953 0.008561764 -0.003197909
000230 bf 36 ee 3c dc 4d 8a ba ed c9 15 3c 23 82 81 bc
       0.02907884 -0.0010551768 0.009142381 -0.015809124
000240 08 51 7e bc 64 74 16 bc 0f c5 12 bc 7c b0 7a 3c
       -0.015522249 -0.009183023 -0.008958115 0.015300866
000250 e7 40 dc 3c 30 63 65 bc 0e 94 25 3c 0f cf e6 3b
       0.026886417 -0.014000699 0.0101061 0.0070437263
000260 aa 9e 05 3d be d5 c9 3c 49 82 e4 3a e7 c6 9a 3a
       0.032622017 0.024638053 0.0017433848 0.0011808545
000270 6c f0 7a bc f4 9e 59 3c 50 b0 55 bc fc ba 12 bc
       -0.01531611 0.013282526 -0.013042524 -0.008955713
000280 85 60 a1 3c 4c 37 05 bc 34 9a ab 3b 80 24 d2 3c
       0.019699344 -0.00813086 0.0052368883 0.02565217
000290 46 50 52 bb f5 1b 91 3c 7f 43 fa ba b5 df 8d bb
       -0.0032091304 0.017713526 -0.0019093602 -0.0043296465
0002a0 b5 56 81 3b 6a 33 c2 bb d6 7d 6e bc a8 c8 59 bb
       0.003947104 -0.005926539 -0.014556369 -0.0033231173
0002b0 fa 8b eb bc fd e7 48 3c d7 ba b3 3c 85 e7 06 3c
       -0.02875327 0.012262342 0.021939678 0.0082339095
0002c0 b6 d1 b4 bc 42 ca 14 3c d2 9d 99 bc 62 03 b8 bc
       -0.022072654 0.009081425 -0.018752012 -0.02246255
0002d0 a8 93 92 bc 8a 9a 0f bb e8 18 71 3c c7 b3 b8 3c
       -0.017892674 -0.002191218 0.014715411 0.022546662
0002e0 21 2a ba bb f6 ac d6 3c 52 fc 80 bb ae bc ed bb
       -0.0056812917 0.026205521 -0.003936329 -0.0072551584
0002f0 7f 59 3a 3c 06 af be bc d4 89 ba 3b a5 e2 b5 bb
       0.011373877 -0.023276817 0.0056927 -0.0055507
000300 16 4b 64 bc 74 a5 ea 3b 3b 94 ae 3c ac 1b d8 3c
       -0.0139339175 0.007160837 0.021310916 0.026380382
000310 d3 fb 94 bc 12 a6 26 bb fc be 9a 3c 1e a8 7c 3c
       -0.018186485 -0.0025428575 0.018889897 0.015420942
000320 37 c1 fb 39 a8 f4 05 bb 90 f4 27 bc 9c 57 52 3c
       0.00048018407 -0.0020440016 -0.010251179 0.0128382705
000330 80 63 80 3c 2c e7 d1 37 d0 86 29 bc 70 54 23 3c
       0.015672445 2.502239e-05 -0.010347083 0.009968862
000340 66 d7 d9 3b 38 07 e5 bc d0 ac fa 3c a0 04 50 3c
       0.006647992 -0.027957544 0.030599982 0.012696415
000350 86 16 18 bc 0f 9e af bc 89 4b 14 3c 2e ab 7d 3a
       -0.009282714 -0.021437673 0.009051212 0.0009676692
000360 8a 1f bb bc 74 55 28 3c ec 62 aa 3a e1 a2 bc bb
       -0.022842187 0.01027428 0.0012999452 -0.0057567214
000370 49 00 8d bc fa 72 b8 3c 9d e5 68 bc d1 92 b1 3c
       -0.01721205 0.022515763 -0.0142149 0.021676453
000380 44 dd 95 3c 93 de 36 bb 82 26 48 3c 6a 9a 3b 3c
       0.018293984 -0.002790366 0.012216212 0.011450389
000390 84 55 7c 3b 07 c4 72 3c ce 1d 7e bc 63 cf f4 bb
       0.003850312 0.014817244 -0.015510036 -0.0074710115
0003a0 b9 35 67 bc 7b 3f 09 bb 8c 0a 94 3c b4 da 1e 3c
       -0.01411193 -0.0020942378 0.018071435 0.009695698
0003b0 ca 7c 17 bc 89 9d 95 bb 3a 26 3a bc a8 6b ef 3b
       -0.009246061 -0.004565899 -0.011361653 0.007306535
0003c0 27 8b b0 bb 80 79 73 bb 3d 02 20 bc b3 6f e7 3b
       -0.005387682 -0.0037151277 -0.009766159 0.007062876
0003d0 64 ac ae 3c 25 e5 14 bc 88 f2 a7 3c 01 c4 5b ba
       0.021322437 -0.009087835 0.02050139 -0.0008383394
0003e0 df 41 e8 3b a9 b4 20 3c d6 f8 5f bc 7d 3f d3 bb
       0.0070879306 0.009808698 -0.013670167 -0.0064467774
0003f0 d2 9d a3 3a d5 c3 2f 3b 8f 3d 9b 3c 83 15 04 3d
       0.0012482947 0.0026819606 0.018950252 0.032247078

model_8/tf.__operators__.add/AddV2/y f4 [32]
000000 65 c4 a5 3c da 61 0d bc 93 30 8b 3c 99 67 78 3c
       0.02023525 -0.008629287 0.016990935 0.015161418
000010 aa 2c 11 bc 96 10 a9 3b 7a 56 d3 bb 79 17 b6 3c
       -0.008860746 0.005159448 -0.006449518 0.02222799
000020 a5 80 9d b9 c3 9d 97 bc cb 64 fc 3a e3 96 20 3b
       -0.0003004122 -0.018507844 0.0019256113 0.0024503998
000030 67 c2 ac b8 cf 2e 94 ba 06 b6 07 bc ec dc 2e 3b
       -8.2378094e-05 -0.0011305454 -0.008283144 0.0026681973
000040 82 d3 8c bc 77 e2 bc bc cc 49 47 bc 30 7f f5 3c
       -0.017190699 -0.023057206 -0.012163591 0.029967874
000050 8a 34 49 3b 9c 62 d6 3c 84 ce 4e 3c 57 f1 39 bc
       0.0030701482 0.026170067 0.012622479 -0.011349044
000060 90 19 5f bc 26 1a ac 3b de 08 af bc f9 12 8c 3c
       -0.013616934 0.0052521406 -0.021366533 0.01709889
000070 e7 0a 11 bb d9 d9 62 3c dc b9 c4 ba fb 7e 7a 3c
       -0.0022131742 0.013845884 -0.0015009004 0.015289064

model_8/tf.__operators__.add_1/AddV2/y f4 [32]
000000 e2 90 c8 3d 72 e4 5f 3d 41 f5 9b 3d 28 bd 24 be
       0.09793259 0.05466122 0.07615138 -0.16087782
000010 cd 7c 19 3d d8 02 c5 bd 03 c6 49 3d 75 e4 c1 3d
       0.037472535 -0.09619683 0.049261104 0.09467403
000020 94 dc bc 3d 04 20 d6 3d 6b 90 26 bd 13 fd 07 bd
       0.092217594 0.10455325 -0.04066507 -0.033200335
000030 6b b5 20 3e 9a c7 ee 3d 4b 30 19 be 1f a5 2c 3e
       0.15694205 0.11659165 -0.14959829 0.16859864
000040 fc 13 e4 bd 37 a9 f9 3b 7f b5 38 be 59 ab f8 bd
       -0.11136624 0.007619049 -0.18037985 -0.12142057
000050 a9 28 e7 bd a1 91 3f 3c 13 93 15 3e ae 9e fa 3d
       -0.11287052 0.0116924355 0.14606886 0.12237297
000060 5f 87 1f 3e 8e 06 8a 3c 7d 8b cd bd 33 f1 bc 3d
       0.15578984 0.016848829 -0.10036371 0.092256926
000070 11 de 25 3d aa 21 39 bd 95 92 2b 3e 04 e2 44 bc
       0.040494982 -0.04519812 0.16755135 -0.012016777

model_8/tf.math.add_2/Add/y f4 [1, 32]
000000 38 91 7a 3b 91 72 3f 3a d7 99 9c 3c 2b 67 03 3c
       0.003823353 0.00073031435 0.019116325 0.008020203
000010 6e bf 6e 3c 9d 38 1c 3b 73 85 11 3c 95 f4 0c 3d
       0.014572008 0.0023837455 0.008881914 0.03441294
000020 a4 ad b4 bd 1f 49 14 3c 26 96 d6 3b 0a 22 d3 3b
       -0.08822182 0.009050637 0.006548661 0.0064432668
000030 2b 68 2f bb 88 05 ea ba 28 4d e1 b8 64 8e bf 3c
       -0.002676497 -0.0017854432 -0.000107432075 0.023383327
000040 e1 cf de 3c 9f f4 3c bb 68 c8 c5 3b 05 cb 52 3c
       0.027198734 -0.002883233 0.006035853 0.012865786
000050 e6 c2 0a bc 08 00 8f bb 87 07 86 3b 14 ca c9 bc
       -0.008469319 -0.0043640174 0.004090253 -0.024632491
000060 66 e8 0f bc 77 95 20 3c 27 b7 21 3c 65 c0 2a 3c
       -0.008783435 0.00980126 0.009870327 0.010421847
000070 18 74 33 3c 64 1a 2f 3b b8 58 aa bd b3 7f 27 3c
       0.010952972 0.002671861 -0.08317703 0.010223317

model_8/tf.math.add_5/Add/y f4 [1, 32]
000000 86 1e 92 3d ab 5c 02 3d d0 4f 54 3e 95 41 8d 3d
       0.07134728 0.031826656 0.20733571 0.068972744
000010 17 67 6f 3e 17 d6 4e 3d ce 00 81 3d 95 0b 54 3e
       0.2337917 0.05049714 0.062989816 0.20707543
000020 6c 00 9b 3d b9 18 4d 3b 2f 43 5e 3e 5e 04 5f 3e
       0.0756844 0.0031295253 0.21705316 0.2177901
000030 78 74 5d 3e 77 6f fe 3b 20 8f 62 3d 44 02 89 3e
       0.2162646 0.0077647525 0.055312276 0.2675954
000040 fd 42 44 3d fe d8 6e 3d b2 97 dd 3d 10 46 ad bd
       0.047915448 0.05831241 0.10819949 -0.08460629
000050 10 e0 67 3e 84 f3 87 3e 99 91 93 3d b5 cf 69 3d
       0.22644067 0.26552975 0.07205505 0.05708285
000060 47 01 74 3d 6c 37 a8 3d c3 98 64 3e bf 66 b9 bc
       0.05957153 0.08213696 0.22323899 -0.022632001
000070 5d 13 cc 3d ca df ee 3d 92 4e 58 3e af 32 01 3d
       0.09964631 0.11663778 0.21123722 0.031542476

model_8/tf.math.multiply_10/Mul/y f4 [1, 32]
000000 ec b6 7b 3f 56 a4 7e 3f 6c d8 83 3f 18 ed 82 3f
       0.9832599 0.99469507 1.0300422 1.0228605
000010 69 14 83 3f 6d 64 7f 3f 96 82 82 3f 8c db 7e 3f
       1.0240604 0.9976261 1.0196102 0.9955375
000020 33 ca 75 3f 64 59 7b 3f 39 bb 85 3f 71 62 76 3f
       0.96011657 0.98183274 1.0447761 0.9624396
000030 21 1a 81 3f 04 f7 81 3f dc e9 7c 3f 1e 80 82 3f
       1.0086099 1.0153508 0.9879434 1.0195348
000040 bb 9e 7c 3f 65 a5 7e 3f 25 55 7e 3f 7b 5c 84 3f
       0.98679703 0.9947112 0.9934867 1.0340723
000050 de c4 7d 3f 83 77 80 3f d4 31 83 3f a1 5c 7d 3f
       0.9912852 1.0036472 1.0249581 0.98969465
000060 16 75 7e 3f 05 74 80 3f 52 1d 82 3f b5 25 83 3f
       0.9939741 1.0035406 1.0165198 1.0245882
000070 d0 11 80 3f 6d 47 7c 3f 63 c4 71 3f 67 27 81 3f
       1.0005436 0.9854649 0.9444029 1.009015

model_8/tf.math.multiply_22/Mul/y f4 [1, 32]
000000 39 12 8b 3f 8c 7a 82 3f 3e b0 99 3f 63 52 87 3f
       1.0864936 1.0193648 1.200691 1.0572017
000010 0e e4 a2 3f 91 45 88 3f 55 19 88 3f 56 e7 98 3f
       1.2725847 1.064623 1.0632731 1.1945598
000020 da 7b 8a 3f 4a 0d 7e 3f 52 76 9a 3f e5 d5 9b 3f
       1.0819046 0.9923903 1.2067358 1.217465
000030 c4 a8 9c 3f 53 cd 84 3f 80 b4 88 3f ac 7b ae 3f
       1.2239003 1.037516 1.0680084 1.3631492
000040 79 4e 87 3f e3 c2 8e 3f eb 73 8e 3f 01 76 6b 3f
       1.0570823 1.1153225 1.1129125 0.91976935
000050 e1 1c 9e 3f 86 dd ab 3f fc 26 8b 3f fe ad 8a 3f
       1.2352563 1.3426979 1.0871272 1.0834348
000060 21 1e 8e 3f d9 d0 8d 3f 53 43 9e 3f 83 c5 81 3f
       1.1102945 1.107936 1.2364296 1.0138401
000070 31 b5 8f 3f 93 1d 96 3f c1 a0 9b 3f 03 0e 89 3f
       1.122717 1.1727775 1.2158433 1.0707401
