Ok Ada.tflite (tflite, 206964 bytes, 9 tensors)

arith.constant f4 [1, 32]
0.020982556 0.12299387 0.0741311 -0.3967866 0.17520392 0.00024391177 0.1154746 0.09120703
0.10223869 -0.39975777 0.24918552 0.04666119 0.28366363 0.008326498 0.087966956 -0.37396765
0.19061078 0.18482007 0.17694964 0.046804134 0.0042321435 -0.36747918 0.1119327 0.19416836
-0.026181169 -0.026264843 0.013104824 -0.3729326 -0.3638926 0.10956073 0.17693883 -0.20183456
00000000: 9ce3 ab3c 36e4 fb3d 0cd2 973d 9d27 cbbe
00000010: a868 333e 91c2 7f39 f27d ec3d c0ca ba3d
00000020: 8562 d13d 0dad ccbe 7d2a 7f3e ce1f 3f3d
00000030: 5c3c 913e dd6b 083c 0528 b43d b078 bfbe
00000040: 792f 433e 7941 3d3e 4932 353e b1b5 3f3d
00000050: cbad 8a3b 3b26 bcbe f93c e53d 12d4 463e
00000060: e479 d6bc 5e29 d7bc 9eb5 563c 06f1 bebe
00000070: 2250 babe 6061 e03d 742f 353e b8ad 4ebe

arith.constant1 f4 [32, 32]
0.070072785 -0.17167526 0.0068197143 -0.102802336 -0.004118125 0.031634275 0.11127651 0.16374275
-0.09858788 0.0633512 0.1594562 0.12617515 0.08946254 0.013495395 -0.03303583 -0.098590545
0.17321447 -0.13477796 -0.030723345 -0.106758535 -0.048863743 0.011632396 -0.12786801 -0.12439645
0.009804057 -0.13072477 -0.1408742 -0.13814978 -0.10175634 -0.036018886 -0.14265515 0.013608718
0.17474009 0.063490376 0.025205 -0.15367249 0.03822052 -0.02326767 -0.10212101 -0.046766084
0.003995966 -0.14106362 -0.035860736 -0.10059435 -0.110196754 0.14769983 -0.11983057 0.07717391
0.034649957 0.027371291 -0.1298687 -0.07403141 -0.12892026 -0.14226878 -0.11651525 -0.05828119
-0.0018507909 0.035342555 0.02800522 0.11282759 0.18564568 0.10039035 0.031489667 0.026733823
0.08176077 0.0027052849 0.008749223 -0.14774728 0.16996332 0.0050341613 -0.0016547899 -0.018772231
-0.11937178 -0.0015299594 0.0121049825 0.1288777 0.09694581 0.09202897 -0.06699017 -0.015254805
-0.08359754 0.105824254 0.11907941 -0.16926004 -0.09706436 0.00903005 0.082190886 0.053174876
0.051093575 -0.14465427 -0.10239036 0.0319393 0.074223734 -0.2096581 0.12948374 0.01849455
0.13342999 -0.0106718745 0.09730251 0.0658506 -0.12994383 -0.14674959 0.08859722 -0.034706835
-0.06688978 -0.007816698 -0.088932715 -0.10870706 0.040030584 -0.04331108 0.092225656 -0.09097339
-0.13420427 0.114037536 0.040150043 0.072891556 0.1728053 -0.09176492 -0.028552325 -0.044757392
-0.14512917 -0.038483962 0.07008048 0.05015151 -0.092480995 -0.009266085 -0.009883781 0.19466528
-0.11009869 -0.048091013 -0.036654893 -0.0026507785 -0.025792407 -0.010115723 -0.007700435 0.06637507
0.07926569 0.061804265 0.02103269 0.038918946 0.12388158 -0.13331039 -0.015208383 -0.09392385
-0.08383864 0.07258954 -0.016386889 0.06934153 0.08710105 -0.1634481 0.051485155 0.17389923
0.13395607 0.04442948 -0.11838572 0.09308835 0.0045054276 0.19494271 0.027047561 0.16347376
-0.022157585 -0.12590322 -0.035498407 -0.011059999 0.19015184 -0.03957653 -0.0005411528 0.046012297
0.07896047 0.1506498 0.094619416 0.0887524 0.048903693 -0.103499554 -0.06608196 -0.07679844
0.089448676 0.04941249 -0.061342586 -0.17715143 0.13785751 -0.0030395505 -0.07057234 -0.08415839
0.022814933 -0.1303057 0.08087238 0.09972811 -0.044126034 -0.015223219 -0.0020096693 0.008197213
0.0012014563 -0.10779747 -0.17276242 0.06488343 -0.016528964 -0.104999736 0.05357321 -0.181663
-0.031097349 -0.028230626 -0.15301597 0.10974426 -0.17557935 0.02301402 0.10671295 0.029228307
0.13531207 0.05755332 -0.13075829 -0.08770052 -0.044220768 0.09209844 -0.1303297 0.16310826
-0.09415929 0.09036269 -0.057434555 0.039219223 -0.07872315 -0.07737666 -0.07528893 0.13139926
0.049905706 -0.10517093 0.107202634 -0.030011395 -0.05051938 0.11176365 0.08953974 -0.1501921
-0.025471581 0.032317866 -0.07096945 -0.13865022 0.07924616 -0.08729816 -0.00909816 0.020199833
-0.073007844 -0.10865024 0.047651965 0.06372683 -0.08841628 0.15595002 0.042646263 0.009846116
0.09196528 0.11553747 0.024854595 0.16281031 -0.041879464 0.052616432 0.15899144 -0.2510734
00000000: 5282 8f3d a4cb 2fbe e977 df3b 088a d2bd
00000010: 56f1 86bb f192 013d f0e4 e33d 2eac 273e
00000020: 71e8 c9bd 46be 813d 7c48 233e 0f34 013e
00000030: 2338 b73d ca1b 5d3c 9450 07bd d7e9 c9bd
00000040: 225f 313e 3c03 0abe 86af fbbc 38a4 dabd
00000050: 5925 48bd ce95 3e3c d5ef 02be 91c3 febd
00000060: 32a1 203c b7dc 05be 5441 10be 2377 0dbe
00000070: a165 d0bd 8a88 13bd 3114 12be 1af7 5e3c
00000080: 11ef 323e 3e07 823d b77a ce3c 525c 1dbe
00000090: 1f8d 1c3d d79b bebc d224 d1bd cb8d 3fbd
000000a0: 98f0 823b fb72 10be b5e2 12bd 6904 cebd
000000b0: d6ae e1bd a03e 173e bb69 f5bd 5b0d 9e3d
000000c0: 1ded 0d3d c239 e03c 4dfc 04be c89d 97bd
000000d0: ac03 04be e8ae 11be 8c9f eebd 42b8 6ebd
000000e0: 3d96 f2ba 5bc3 103d 346b e53c 2712 e73d
000000f0: e719 3e3e 7599 cd3d 4ffb 003d e400 db3c
00000100: 3172 a73d 264b 313b e758 0f3c 104b 17be
00000110: dd0a 2e3e 9bf5 a43b 89e5 d8ba 39c8 99bc
00000120: 3179 f4bd eb88 c8ba fa53 463c 84f8 033e
00000130: 868b c63d af79 bc3d 2432 89bd 4aef 79bc
00000140: 3035 abbd 63ba d83d e8df f33d 8152 2dbe
00000150: aec9 c6bd c6f2 133c b253 a83d e6cd 593d
00000160: 7f47 513d 4020 14be 09b2 d1bd c9d2 023d
00000170: 9d02 983d 9db0 56be 6397 043e e281 973c
00000180: dfa1 083e 16d9 2ebc 8a46 c73d aedc 863d
00000190: ff0f 05be 8645 16be 7672 b53d c128 0ebd
000001a0: 82fd 88bd 9c11 00bc 5b22 b6bd cfa1 debd
000001b0: 1cf7 233d f666 31bd cee0 bc3d 4250 babd
000001c0: d86c 09be 838c e93d 5f74 243d 2b48 953d
000001d0: dff3 303e 3fef bbbd 91e6 e9bc 8753 37bd
000001e0: be9c 14be 5ca1 1dbd 5b86 8f3d ab6b 4d3d
000001f0: ad66 bdbd c7d0 17bc 95ef 21bc 5656 473e
00000200: 6c7b e1bd 15fb 44bd 7123 16bd afb8 2dbb
00000210: 994a d3bc 6bbc 25bc ee53 fcbb a7ef 873d
00000220: 0d56 a23d 7826 7d3d bf4c ac3c 7969 1f3d
00000230: a0b5 fd3d 8582 08be 952c 79bc 265b c0bd
00000240: 98b3 abbd d3a9 943d cc3d 86bc ef02 8e3d
00000250: 0962 b23d f05e 27be 19e2 523d a412 323e
00000260: c82b 093e b0fb 353d 3674 f2bd 1ba5 be3d
00000270: 44a2 933b 109f 473e d992 dd3c aa65 273e
00000280: d383 b5bc c6ec 00be c766 11bd ff34 35bc
00000290: 2ab7 423e 001b 22bd 26dc 0dba 6477 3c3d
000002a0: 07b6 a13d f143 1a3e d3c7 c13d d1c3 b53d
000002b0: 3d4f 483d 93f7 d3bd fb55 87bd 8048 9dbd
000002c0: de30 b73d c064 4a3d 5d42 7bbd 2f67 35be
000002d0: 852a 0d3e 3233 47bb 3b88 90bd 3c5b acbd
000002e0: 62e6 ba3c db6e 05be 6ba0 a53d 403e cc3d
000002f0: 80bd 34bd cf6a 79bc a8b4 03bb 9a4d 063c
00000300: 2f7a 9d3a ecc4 dcbd a2e8 30be 9be1 843d
00000310: c067 87bc 1a0a d7bd 956f 5b3d de05 3abe
00000320: debf febc ea43 e7bc 38b0 1cbe 99c1 e03d
00000330: 13cb 33be e687 bc3c 528c da3d 3470 ef3c
00000340: 3f8f 0a3e 08bd 6b3d 80e5 05be 559c b3bd
00000350: d620 35bd 1b9e bc3d 2675 05be da05 273e
00000360: 96d6 c0bd 1310 b93d 7f40 6bbd 56a4 203d
00000370: 9a39 a1bd a877 9ebd 1531 9abd 878d 063e
00000380: ed69 4c3d db63 d7bd 0e8d db3d 75da f5bc
00000390: 69ed 4ebd 57e4 e43d 9c60 b73d f5cb 19be
000003a0: c7a9 d0bc bd5f 043d 6e58 91bd 53fa 0dbe
000003b0: d04b a23d 61c9 b2bd 7310 15bc 1f7a a53c
000003c0: 2385 95bd 0484 debd b52e 433d 3683 823d
000003d0: 9813 b5bd 5db1 1f3e d9ad 2e3d 9b51 213c
000003e0: 4b58 bc3d e99e ec3d dd9b cb3c bfb7 263e
000003f0: cd89 2bbd 5484 573d a7ce 223e b18c 80be

arith.constant2 f4 [32, 1536]
0.0047424436 0.0034982227 0.016349258 0.021590818 -0.015208143 -0.012191957 0.0046036816 -0.0044614384
0.04111599 0.01536547 -0.009936094 -0.031613775 0.024025189 -0.012123024 0.006170933 0.0038178554
0.017817438 -0.01967997 0.0035868366 -0.026559388 -0.012024083 0.011721284 -0.005115348 0.04164155
0.0070664026 0.012950167 -0.00065780943 -0.0032497374 0.017824953 0.015746864 -0.017295746 -0.010753976
0.0006449012 -0.02195673 -0.0063175326 -0.02383146 0.0040132366 0.010848645 0.020416489 0.022124337
0.00668521 -0.0120947175 0.020886859 -0.0044597224 0.013978985 0.009267758 -0.0011832167 0.014873098
-0.0052510644 -0.015190913 -0.009349972 0.01037917 0.0292022 -0.017258737 0.006989438 -0.015631022
0.007218463 0.02210778 -0.003797272 -0.0035693245 0.0075886007 0.0033500583 -0.006534114 -0.0017666772
-0.0073077595 0.0124930665 -0.052201375 0.006996554 -0.006651873 0.033234254 -0.01841454 0.0024925142
0.0014090195 0.0029236574 -0.01552696 -0.020632744 -0.0130850915 -0.02155912 -0.033977635 0.016943384
-0.017214922 -0.0039759823 0.0025646447 -0.0053795264 -0.011145536 0.022279354 -0.0053018476 0.010478361
-0.020990003 0.009564477 -0.006630471 0.016827982 -0.0057263225 0.0012405441 -0.010462171 -0.011686139
0.0087858895 -0.01843698 0.017495925 0.026665386 0.0023648206 0.004363207 0.009894854 0.00088587234
0.0042294953 -0.0041615767 0.0107808765 0.0034620839 -0.0030940154 -0.008375205 0.0002347118 -0.003232377
0.009651729 -0.012362248 -0.005616895 0.009918813 -0.008696824 -0.009362174 0.001664047 -0.004081845
-0.01193762 -0.012170805 0.0089891115 0.015504707 -0.016827205 0.026016576 -0.011459042 -0.007172278
-0.0013722443 -0.0040832767 0.006475038 0.013393261 0.016010815 0.0066588423 0.0060108686 -0.0040521803
0.0062379767 -0.0013822 0.02008635 -0.0040720785 -0.010608321 -0.0056604585 -0.02638917 0.022055356
-0.006643624 -0.039454434 -0.017294893 -0.01700738 0.008130674 -0.01872229 -0.023323793 0.007124838
-0.017045982 0.015300243 -0.024255365 0.013553496 0.0074088643 0.01210106 -0.029225452 -0.008191468
0.008353515 -0.0005284273 -0.030378114 0.011168647 0.021577727 0.019128403 -0.0352327 0.011996203
-0.022728967 -0.016022407 0.017987791 -0.036471125 -0.016452879 0.008870772 0.013134896 0.0135403825
-0.011925766 0.009392603 0.023828397 -0.014809523 0.021413615 0.0034499008 0.026136214 -0.021351397
-0.014727128 0.00954191 -0.025133688 -0.0015891365 -0.021608591 -0.0096175205 0.0117867775 0.012067565
-0.028833242 -0.016070083 -0.005920513 0.01952709 -0.019192448 0.006853946 -0.0060834163 0.0020435862
0.0040839054 0.023034588 -0.0041938396 -0.032844186 0.033788502 -0.009908322 -0.0205439 -0.00782793
0.03180995 -0.030712422 -0.0046696244 -0.008003573 -0.0059182644 0.0072249477 -0.01622645 -0.0047802264
0.0046602166 0.013120114 0.0063675405 -0.0069018225 0.010028671 0.022632899 0.012087659 0.014621733
-0.01164733 0.015565745 0.0003089982 -2.6576152e-05 0.0003752572 0.015012037 0.0046114097 0.029028613
0.011508789 0.010763878 0.008153083 -0.008382451 -0.005148448 0.0031014879 0.0056157657 0.01375315
-0.0033819384 -0.024622157 0.003939611 0.015482166 0.023251489 -0.02105065 0.010081875 0.007862202
-0.0018124325 0.011678472 0.0018121172 0.0061355145 -0.034266666 -0.008957517 -0.032299556 -0.014917687
00000000: 8066 9b3b 7042 653b e1ee 853c 3adf b03c
00000010: 932b 79bc c6c0 47bc 7bda 963b 4231 92bb
00000020: 3e69 283d 74bf 7b3c 00cb 22bc 727d 01bd
00000030: 79d0 c43c a69f 46bc 8a35 ca3b fc34 7a3b
00000040: e0f5 913c e337 a1bc 2211 6b3b 1393 d9bc
00000050: a900 45bc a10a 403c a69e a7bb 5490 2a3d
00000060: 488d e73b f02c 543c d870 2cba 8cf9 54bb
00000070: a305 923c 91ff 803c cfaf 8dbc 7231 30bc
00000080: 960e 293a 9ade b3bc 4e03 cfbb 323a c3bc
00000090: 7881 833b 84be 313c 7b40 a73c 193e b53c
000000a0: 9b0f db3b ec28 46bc eb1a ab3c dd22 92bb
000000b0: 1d08 653c cbd7 173c 2a16 9bba 4bae 733c
000000c0: 1f11 acbb 4fe3 78bc a030 19bc 650d 2a3c
000000d0: 7439 ef3c 3262 8dbc a807 e53b a10c 80bc
000000e0: db88 ec3b 601b b53c a7db 78bb 54eb 69bb
000000f0: cca9 f83b a78c 5b3b 1f1c d6bb da8f e7ba
00000100: ee75 efbb b8af 4c3c 1cd1 55bd 5943 e53b
00000110: f4f7 d9bb a420 083d 17da 96bc 7359 233b
00000120: d9ae b83a d59a 3f3b ca64 7ebc 0006 a9bc
00000130: da62 56bc c09c b0bc 222c 0bbd dacc 8a3c
00000140: 4f06 8dbc f548 82bb 9913 283b bd46 b0bb
00000150: c49b 36bc 3183 b63c 1fbb adbb 6ead 2b3c
00000160: 3af3 abbc 53b4 1c3c 6c44 d9bb d6da 893c
00000170: e0a3 bbbb c199 a23a 8769 2bbc 3877 3fbc
00000180: b1f2 0f3c 2609 97bc 9d53 8f3c 5e71 da3c
00000190: 1bfb 1a3b 3cf9 8e3b 071e 223c e339 683a
000001a0: 9497 8a3b d65d 88bb 46a2 303c 21e4 623b
000001b0: f7c4 4abb 2838 09bc f81c 7639 4ad6 53bb
000001c0: 4922 1e3c 078b 4abc ee0d b8bb 8482 223c
000001d0: 207d 0ebc ce63 19bc 271c da3a ffc0 85bb
000001e0: 0296 43bc 0e68 47bc 1147 133c 7407 7e3c
000001f0: 35d9 89bc b720 d53c b5be 3bbc 6e05 ebbb
00000200: e1dc b3ba 02cd 85bb 8e2c d43b 686f 5b3c
00000210: 1d29 833c 6b32 da3b d2f6 c43b 27c8 84bb
00000220: f167 cc3b f02a b5ba 218c a43c 126f 85bb
00000230: 86ce 2dbc 5e7b b9bb 1a2e d8bc 6fad b43c
00000240: c2b2 d9bb f99a 21bd 05ae 8dbc 1053 8bbc
00000250: 8536 053c 7d5f 99bc 8a11 bfbc 7977 e93b
00000260: 04a4 8bbc dfad 7a3c 30b3 c6bc 7c0f 5e3c
00000270: 0fc6 f23b 8643 463c 376a efbc 8235 06bc
00000280: 2edd 083c 2886 0aba 86db f8bc b3fc 363c
00000290: c6c3 b03c 2bb3 9c3c 2a50 10bd b98b 443c
000002a0: 1932 babc 6c41 83bc 225b 933c bf62 15bd
000002b0: 30c8 86bc b756 113c bf33 573c 7bd8 5d3c
000002c0: 4a64 43bc 6fe3 193c c533 c33c a4a3 72bc
000002d0: 9b6b af3c bb17 623b 9d1b d63c 20e9 aebc
000002e0: 0d4a 71bc ac55 1c3c 2ae5 cdbc 934a d0ba
000002f0: 8004 b1bc ce92 1dbc 541d 413c 09b7 453c
00000300: b133 ecbc 68a5 83bc dd00 c2bb 47f7 9f3c
00000310: 7b39 9dbc 1197 e03b 6557 c7bb b0ed 053b
00000320: 48d2 853b 08b3 bc3c 7a6c 89bb a087 06bd
00000330: d065 0a3d 8456 22bc ae4b a8bc b840 00bc
00000340: 264b 023d 9e98 fbbc a603 99bb 6b21 03bc
00000350: 00ee c1bb 41bf ec3b 55ed 84bc 72a3 9cbb
00000360: bbb4 983b bff5 563c cda6 d03b af28 e2bb
00000370: 4b4f 243c a168 b93c 510b 463c fe8f 6f3c
00000380: 71d4 3ebc 7707 7f3c 0901 a239 daef deb7
00000390: 2bbe c439 0cf5 753c 4f1b 973b 6acd ed3c
000003a0: 5c8f 3c3c fa5a 303c 8294 053c 8c56 09bc
000003b0: 50b4 a8bb 5542 4b3b 7504 b83b e454 613c
000003c0: 83a3 5dbb 68b4 c9bc da17 813b e9a8 7d3c
000003d0: e879 be3c 6a72 acbc 732e 253c 77d0 003c
000003e0: 258f edba 1057 3f3c 9084 ed3a 6d0c c93b
000003f0: 345b 0cbd 8dc2 12bc 8a4c 04bd 5069 74bc

model_8/tf.__operators__.add/AddV2/y f4 [32]
-0.018101295 0.011965191 0.010661696 -0.0064903186 0.0121295145 0.019799203 0.00433273 0.020882713
-0.019375522 -0.00087150716 -0.025671273 0.0058742226 0.0025667145 0.018189201 -0.018053832 0.0025266907
0.0074902256 0.026142428 0.025944216 0.016023394 0.019340623 0.0015631163 0.022423903 -0.0036166643
0.012356479 -0.016914474 0.026156228 0.024325863 0.010373463 0.009170657 -0.021275826 -0.028996123
00000000: 2b49 94bc a609 443c 65ae 2e3c bdac d4bb
00000010: dfba 463c f031 a23c 93f9 8d3b 3912 ab3c
00000020: 6ab9 9ebc db75 64ba 904c d2bc 8d7c c03b
00000030: 5336 283b 8501 953c a1e5 93bc d696 253b
00000040: 9170 f53b a528 d63c f788 d43c 7e43 833c
00000050: 3a70 9e3c 7be1 cc3a 55b2 b73c 8f05 6dbb
00000060: d472 4a3c 3990 8abc 9645 d63c 0847 c73c
00000070: 75f5 293c 8640 163c a44a aebc 4789 edbc

model_8/tf.__operators__.add_1/AddV2/y f4 [32]
0.021074919 0.08983914 -0.013167852 -0.03527739 -0.027245399 -0.07308988 0.15137947 0.10409208
0.03801994 -0.17003614 0.13101606 0.09854467 -0.016684437 -0.19228494 0.14437929 0.123891965
-0.11380317 -0.084575154 0.15069392 -0.112348534 0.025895173 -0.12860838 -0.14682695 -0.14676957
0.092498176 0.02126387 0.12925068 0.13787773 0.14788589 0.099575795 -0.09770035 0.03503915
00000000: 4fa5 ac3c 95fd b73d f9bd 57bc 067f 10bd
00000010: be31 dfbc 26b0 95bd 3803 1b3e 3a2e d53d
00000020: ccba 1b3d f41d 2ebe 1329 063e cad1 c93d
00000030: cdad 88bc 58e6 44be 2ad8 133e 12bb fd3d
00000040: a311 e9bd bd35 adbd 824f 1a3e fd16 e6bd
00000050: 1d22 d43c eab1 03be ce59 16be c34a 16be
00000060: af6f bd3d 9131 ae3c 4a5a 043e d22f 0d3e
00000070: 666f 173e 65ee cb3d 1f17 c8bd 3685 0f3d

model_8/tf.math.add_2/Add/y f4 [1, 32]
0.029571377 0.031409528 0.014466712 -0.032045502 0.007244997 -0.0119465925 0.007886136 0.03135109
-0.0091717765 0.013634702 0.00901921 -0.010428646 -0.020519022 0.042018373 0.012716324 0.0060393526
0.005534272 0.008463178 0.010102919 0.052218046 0.022297762 -0.02152903 -0.0131461285 -0.010059006
0.027602812 0.038354475 0.012133887 -0.015918378 0.007423867 0.04828225 -0.015879098 0.034844708
00000000: ac3f f23c 47a7 003d ca05 6d3c 2542 03bd
00000010: 7167 ed3b a4bb 43bc da34 013c 006a 003d
00000020: 3845 16bc 1664 5f3c 4fc5 133c e9dc 2abc
00000030: 8217 a8bc 751b 2c3d 2158 503c c3e5 c53b
00000040: d758 b53b 24a9 0a3c b786 253c 97e2 553d
00000050: cca9 b63c a65d b0bc dc62 57bc 87ce 24bc
00000060: 4b1f e23c 9519 1d3d 36cd 463c 4267 82bc
00000070: e943 f33b 9cc3 453d e214 82bc 53b9 0e3d

model_8/tf.math.add_5/Add/y f4 [1, 32]
0.012376516 0.03187473 0.0030937756 0.31041417 0.024906637 -0.0538669 -0.00047932682 0.03932712
0.04334981 0.28553835 0.084236205 0.071208015 0.08063388 -0.016632015 0.054320224 0.32806578
0.012904396 0.039634824 0.026211651 0.029887479 -0.05117185 0.2967516 -0.03639172 0.020608146
0.00502504 0.025257416 -0.013648177 0.31777287 0.31622663 0.06799011 0.021471132 0.15457259
00000000: dfc6 4a3c 148f 023d f1c0 4a3b 9bee 9e3e
00000010: 0109 cc3c 8aa3 5cbd 284e fbb9 7915 213d
00000020: 928f 313d 1532 923e 0884 ac3d 82d5 913d
00000030: 6023 a53d dd3f 88bc e27e 5e3d 3df8 a73e
00000040: f66c 533c 2058 223d d1b9 d63c 96d6 f43c
00000050: 9399 51bd d3ef 973e 7c0f 15bd 6ad2 a83c
00000060: 17a9 a43b a4e8 ce3c 9a9c 5fbc 20b3 a23e
00000070: 75e8 a13e 663e 8b3d 3ae4 af3c 4748 1e3e

model_8/tf.math.multiply_10/Mul/y f4 [1, 32]
1.004901 1.0161983 0.94885796 0.9746803 0.9968233 0.98943025 0.96523213 1.0038233
0.9861005 0.9838139 1.0028347 0.99352384 0.99168706 1.0047761 1.0176077 0.9789211
0.9810458 0.9842817 0.98595184 1.0803642 1.0729514 0.99438274 0.9985368 0.99769616
1.0204021 0.978945 0.9795257 0.9969615 1.0084043 1.0478379 0.9763745 1.0369705
00000000: 99a0 803f c912 823f 5be8 723f a684 793f
00000010: d02f 7f3f 4d4b 7d3f 7419 773f 487d 803f
00000020: 1571 7c3f 3adb 7b3f e35c 803f 9457 7e3f
00000030: 34df 7d3f 819c 803f f840 823f 939a 7a3f
00000040: d125 7b3f e3f9 7b3f 5767 7c3f 6049 8a3f
00000050: 7956 893f de8f 7e3f 1ca0 7f3f 0469 7f3f
00000060: 899c 823f 249c 7a3f 32c2 7a3f de38 7f3f
00000070: 6413 813f 8d1f 863f aef3 793f 73bb 843f

model_8/tf.math.multiply_22/Mul/y f4 [1, 32]
1.0245801 1.1286135 1.0061619 1.3240964 1.0547706 0.9670646 1.0202909 1.0759515
1.0710418 1.2710311 1.1406503 1.0802997 1.2735546 0.99640703 1.1050521 1.3633268
1.0258726 1.1019548 1.0394195 1.0164708 0.94055045 1.2853903 0.98673844 1.0637958
0.999295 1.0155294 0.99201244 1.3464615 1.335404 1.0596014 1.0389574 1.025605
00000000: 7125 833f 6876 903f eac9 803f fe7b a93f
00000010: b902 873f 8c91 773f e498 823f c7b8 893f
00000020: e617 893f 26b1 a23f d400 923f 4347 8a3f
00000030: d603 a33f 8814 7f3f 5972 8d3f 7e81 ae3f
00000040: cb4f 833f db0c 8d3f b30b 853f b71b 823f
00000050: eac7 703f ab87 a43f e49a 7c3f 762a 883f
00000060: ccd1 7f3f defc 813f 87f4 7d3f da58 ac3f
00000070: 85ee aa3f 05a1 873f 8efc 843f 0647 833f
