Ok Ada V2.tflite (tflite, 206964 bytes, 9 tensors)

arith.constant f4 [1, 32]
000000 c9 ff 8a be 57 ee 0f 3e 2a df 56 3e fc f4 00 3e
       -0.27148274 0.14055763 0.20983568 0.12593454
000010 4e 88 24 3e 12 d3 99 be cd 54 b3 be 8e 1a 65 bc
       0.16067621 -0.30043846 -0.35025635 -0.013983382
000020 b4 a5 87 3d 12 ae 76 bc b7 78 53 3e a1 aa a8 be
       0.06623402 -0.01505615 0.20651518 -0.3294268
000030 e4 e6 30 3e 3d 8a 9f be 6b 06 2c 3d a8 a7 a4 3d
       0.17275578 -0.31160155 0.04199831 0.080397904
000040 01 14 aa be c8 72 b6 be 99 46 b9 be ac 9d 31 3d
       -0.33218387 -0.35634446 -0.36186674 0.04336326
000050 e0 63 e2 3d 0e eb 14 3e a0 1b 4c bc 2a c5 5b 3e
       0.11054206 0.14542791 -0.012457758 0.21461931
000060 c4 e7 9a be 6a 23 e2 3d f1 93 0a 3d 5e f4 b5 3d
       -0.30254948 0.11041911 0.033832494 0.088845
000070 2e d3 c0 3d 21 6f 23 3e 6d b3 42 3e f7 36 32 3e
       0.09415279 0.15960361 0.19013758 0.1740378

arith.constant1 f4 [32, 32]
000000 55 4e f4 3d 04 9a c6 bd 67 86 5d bc 8a bd 94 3d
       0.11929003 -0.09697345 -0.013520814 0.07262714
000010 cf 39 38 bd 23 8c 8e 3d 91 3c 87 3c 58 ef 03 bd
       -0.044977006 0.06960323 0.016508373 -0.032210678
000020 88 42 b1 3d e9 47 3e 3e a3 e4 b3 bd 87 57 a7 bd
       0.08655268 0.18582119 -0.08783843 -0.081709914
000030 c7 c6 e9 bd 38 40 5f 3d a9 c0 02 3e 04 55 08 bd
       -0.11414867 0.054504603 0.12768807 -0.033284202
000040 2b 3b cd 3d 17 ad 0a be b0 67 10 3d c9 e9 ec 3d
       0.10021051 -0.13542591 0.035255134 0.115680285
000050 0a a4 2d be e8 25 67 bd 4d 1b 21 3e 5b 50 70 3d
       -0.16957107 -0.056432635 0.1573307 0.058670383
000060 84 4a 27 3c 71 cd c8 bc 49 b4 09 3e 45 1d b5 3c
       0.010210637 -0.024512025 0.1344768 0.022108683
000070 7b 2f f4 3d 40 4e 93 bd 78 0c 01 3e 7b 2e 26 be
       0.11923119 -0.071926594 0.12602413 -0.16228668
000080 27 26 f9 bd 0a 6f 30 3d b4 2c c1 bd 7d 8f 1a be
       -0.1216548 0.043074645 -0.094323546 -0.15093799
000090 bc 72 04 3e 0d 40 74 bd 45 19 1a bd c7 a8 21 bd
       0.12934393 -0.059631396 -0.037621755 -0.0394676
0000a0 5c 16 09 be 2a 02 4d bd 14 0f 12 be a3 a8 f0 bd
       -0.13387436 -0.050050892 -0.14263564 -0.11750915
0000b0 42 8e 46 bd 70 f7 e5 bd a4 2d 24 be df 3b 09 be
       -0.04847551 -0.112288356 -0.16033036 -0.13401745
0000c0 d5 32 0b 3e 32 23 b8 3d b0 88 aa 3b 7a d5 16 bd
       0.1359361 0.08991088 0.0052042827 -0.03682468
0000d0 da 8e 10 be b6 45 2e 3e 5a d2 15 3e 07 f0 8b 3c
       -0.14116994 0.1701878 0.14631024 0.017082227
0000e0 f5 7a de bd 01 e6 00 be 79 f7 1a 3d c6 7e 2d 3e
       -0.10863296 -0.1258774 0.037833665 0.16942891
0000f0 8e 64 af bd 44 11 86 bd 97 7b f2 3d 6d 46 1c 3e
       -0.08564101 -0.06546262 0.11839979 0.1526124
000100 fe e4 b7 3d b8 80 96 bd ae 2f a7 3d 7d 17 58 bd
       0.08979224 -0.0734877 0.08163391 -0.052756775
000110 a0 40 1c be 78 de d1 bd a7 95 ec 3d 1f 54 5a bd
       -0.15259027 -0.10247511 0.115519814 -0.05330288
000120 24 7c 05 3e c7 b8 45 3e 21 a2 fb 3c d6 67 d5 3d
       0.13035637 0.19308768 0.030716958 0.10420196
000130 13 51 22 be 1a 59 28 be 0c 50 e3 3d 62 9a ee 3c
       -0.1585124 -0.1644024 0.11099252 0.02912635
000140 4b 5a 34 bc 8d cd 64 bd 8f 73 c6 bd e4 22 e5 bd
       -0.011007856 -0.05586009 -0.0969001 -0.111882955
000150 23 c2 da 3d e8 95 26 3c ff a3 6c bd 8a f8 cb bd
       0.1068156 0.010167576 -0.057773586 -0.099595144
000160 e0 92 48 3c b6 25 74 3d 9e 16 fa bd 66 55 7a bd
       0.012242049 0.059606276 -0.12211345 -0.0611166
000170 48 fb 0e 3e 25 1d 00 3e 83 03 c7 bd eb 4f 1c 3e
       0.13963044 0.12511118 -0.09717467 0.15264861
000180 7a ad f8 bd 97 98 06 3c 01 1d 86 3d 66 35 fb b9
       -0.12142463 0.008215091 0.06548501 -0.00047914236
000190 0e e9 12 be ed 80 db 3d be 0c dd 3c 4a b6 1f 3e
       -0.14346716 0.1071795 0.026983615 0.15596882
0001a0 5b b6 01 be dc c7 ed 3d 40 a4 a4 bb cb ec 45 bc
       -0.1266722 0.11610386 -0.005024463 -0.012080382
0001b0 7b 4c 49 3c 19 fa 19 3e 39 80 0c be e8 2a 93 3c
       0.012286301 0.15036811 -0.13720788 0.017964795
0001c0 c1 0d 88 3d 5a 28 31 bd ed 20 72 bd a1 c9 40 3d
       0.06643248 -0.043251373 -0.05911343 0.04706729
0001d0 42 4b 85 bd ca fd 4f 3e 22 d2 90 bb 64 1d 92 bd
       -0.06508495 0.20311657 -0.004419581 -0.07134512
0001e0 2b 9f 33 bd 4d 47 0a be 62 00 60 3d e4 d2 50 3d
       -0.043852966 -0.13503762 0.054687865 0.05098237
0001f0 1f ef 0e bd 1c 1d ce bd 6d 5d 34 bd a2 16 c1 bd
       -0.034896012 -0.10064146 -0.04403441 -0.09428145
000200 b6 c8 67 3e 01 b3 20 3e b7 da 11 3d f9 ee b0 3d
       0.22635159 0.15693285 0.035608973 0.086393304
000210 8b c1 2a 3d aa b9 93 bc 24 70 7b bd 9b ea 30 3e
       0.041688483 -0.018032867 -0.061386243 0.17276995
000220 b0 d1 fe 3d 56 31 49 3e c5 97 08 be 1b 10 71 bd
       0.124423385 0.19647726 -0.13339145 -0.05885325
000230 24 73 2f be 80 1b 04 3e 26 87 b1 bc a8 59 1c be
       -0.17133766 0.12901115 -0.02167089 -0.15268576
000240 89 0b 32 be e2 ad e6 3d 7d 29 80 bc 79 23 f3 3c
       -0.17387213 0.11263634 -0.015644783 0.02968
000250 24 4b 71 3d 9e 08 67 bd dc 6c c2 3c 63 f4 57 3d
       0.05890955 -0.056404702 0.023733549 0.0527233
000260 95 41 cf 3d 90 22 2f 3e af 7d 34 3b 2f a5 b8 bc
       0.10119931 0.17103028 0.0027540734 -0.022539703
000270 c5 85 a8 3d 85 a7 b7 bc 95 9e d6 3d 40 82 fb bd
       0.082286395 -0.022418747 0.10479466 -0.122807026
000280 2d 3d 12 bd ed c4 c7 bd b6 bb 86 bd fc 00 99 bc
       -0.035702873 -0.097543575 -0.06578772 -0.018677227
000290 14 09 dc 3d ae 53 ab 3d c7 08 ac bc 19 60 0b 3c
       0.10743919 0.0836557 -0.02100028 0.008506798
0002a0 a4 14 e9 3d db 59 ab bc 49 16 6f 3d ff 9b 49 3c
       0.1138089 -0.02091687 0.058370862 0.012305259
0002b0 46 51 30 3e e0 11 a9 3d 03 e1 7a bc 91 1c 32 bd
       0.17218503 0.082553625 -0.015312436 -0.043484274
0002c0 6b b1 2a 3d 00 76 a6 3c fb 82 d5 bd 79 53 98 3d
       0.041673105 0.020319939 -0.10425373 0.07437796
0002d0 e1 8e 52 3d dc 8d b4 bb 0e c2 b4 3d 66 23 18 be
       0.05140579 -0.005510075 0.088260755 -0.14857253
0002e0 f8 04 01 3e e3 bc 02 bd 65 b1 aa 3d fb 3d 2c 3e
       0.12599552 -0.031918418 0.083346166 0.16820519
0002f0 ae ef 27 3e 63 c1 a2 3d e9 69 36 be 17 58 4e 3c
       0.16400024 0.07947042 -0.17813839 0.012594244
000300 a3 28 64 3c 24 64 9c bd 31 69 a7 bb e7 86 82 3c
       0.013925704 -0.07636288 -0.0051089753 0.015933467
000310 d2 80 57 3e ef 8f da bc 31 8c c3 bd c0 4e 6c 3d
       0.21045235 -0.026679961 -0.09548224 0.05769229
000320 e6 af 35 3e de 90 49 bc b6 db 15 3e c6 a1 26 bd
       0.17742881 -0.012302605 0.14634594 -0.040681623
000330 d8 12 6c 3d 51 99 06 3e f5 a4 a0 3d fe 13 f3 bc
       0.05763516 0.13144423 0.07843963 -0.029672619
000340 84 5e ef 3d 0a 69 e5 3b 7f a7 55 bd 57 d1 83 bd
       0.11687949 0.007001047 -0.05216169 -0.06436413
000350 8f 2c b5 bd 6d c3 19 3d 78 08 8b 3e 34 99 1f 3e
       -0.088463895 0.03753989 0.271549 0.15585786
000360 c1 09 b4 ba 41 99 ff 3d 8f 01 f4 bc 07 ac 8f 3d
       -0.0013735817 0.12480403 -0.0297859 0.070152335
000370 31 f0 6b 3d ad 0a d8 3d 83 91 b7 3c d0 ab c6 bd
       0.05760211 0.10548911 0.022408253 -0.097007394
000380 c5 09 8d 3d 6f b2 08 3e b5 fa 0b 3e 4a 2e e4 bd
       0.06886629 0.13349317 0.13669856 -0.111416414
000390 ed ed 9b 3d c7 61 c4 bd e0 5c 0d 3e 3e fc 2f 3e
       0.0761374 -0.09588962 0.1380496 0.17186067
0003a0 85 9f 3c bd 3c f1 18 3e c1 91 3e 3d fe 01 69 bd
       -0.046050567 0.14935774 0.04652572 -0.056886666
0003b0 14 f9 a5 bc 2c e2 83 3d 3b 43 01 3d fa 8b 0a be
       -0.020260371 0.06439623 0.031558257 -0.1352996
0003c0 de e8 f5 bd cb 6f f5 3d 69 ad 0f 3d a5 9f cd 3d
       -0.120073065 0.119842134 0.035077486 0.100402154
0003d0 98 5f 8c bd f7 ba 04 3c e1 29 93 bc 41 99 b7 3c
       -0.068541706 0.0081012165 -0.017964305 0.022411944
0003e0 58 7d 27 be 9b 21 98 3c 8c 8e 08 be e0 12 87 3d
       -0.16356409 0.018570712 -0.13335627 0.06595397
0003f0 ad 38 17 3e b4 3d 12 bd ad 95 0d be d6 b5 65 bb
       0.14767714 -0.035703376 -0.13826628 -0.003505101

arith.constant2 f4 [32, 1536]
000000 24 26 0d 3c 57 df bb 3c 42 29 fd bc fb 00 eb bb
       0.00861505 0.022933645 -0.030903462 -0.0071717477
000010 59 b2 03 3d 17 ee 81 bc 4f 56 2c bc c3 67 84 bb
       0.032152507 -0.0158606 -0.010518624 -0.0040406897
000020 f4 58 27 bd 1f ca aa 3c c7 9d b0 bc 6b 95 f6 b9
       -0.040856317 0.020848332 -0.02155961 -0.000470321
000030 61 4b b5 bc 14 db 25 bc fb b0 a3 3c 13 ca 46 bc
       -0.02213067 -0.010123033 0.019981852 -0.012133139
000040 d6 2b 0e 3c ae 0e dc 3c eb 70 b5 3c 02 cb a4 bc
       0.0086774435 0.026862469 0.02214857 -0.020116333
000050 82 6d 18 bc cc 65 14 3a 1d b7 91 bc 65 9d fd bc
       -0.009303452 0.0005660921 -0.01778751 -0.03095884
000060 39 b9 02 3c 70 45 86 3c c6 53 0a bc 11 85 86 bc
       0.007978731 0.016390532 -0.008442825 -0.016420873
000070 36 0a ad 3c 02 91 1c 3b ce db 8f 3c 19 99 9b 3b
       0.021123033 0.0023890142 0.017560866 0.0047484753
000080 93 04 af 3c fe 8e f0 3c 41 e5 21 bc a0 54 98 3b
       0.021364486 0.029365059 -0.009881319 0.00464876
000090 87 13 64 bc 36 81 6b bc 1f ec 00 bd e8 36 6e bb
       -0.013920671 -0.014374068 -0.031475183 -0.0036348645
0000a0 3d de f1 3c f1 63 70 bb 85 a0 12 3c 2e 90 8f ba
       0.029524917 -0.0036680663 0.008949404 -0.0010953003
0000b0 42 e8 72 bc 99 ab c0 bc 61 1c a5 3b da 3c 18 bc
       -0.014825882 -0.023519324 0.0050387834 -0.009291852
0000c0 9c a3 07 bc 71 04 41 3d f3 b5 2c bc d2 f1 dd 3c
       -0.008278754 0.047123376 -0.010541427 0.027092848
0000d0 1d 15 0b 3b 57 5e 13 bc 00 ca fd 3a a0 f6 02 bc
       0.0021222301 -0.00899466 0.0019362569 -0.00799337
0000e0 04 e1 d8 3c 32 4a 83 bb 01 c0 c9 bc 7e 45 85 bc
       0.026474483 -0.0040066475 -0.024627687 -0.016268488
0000f0 2c 2b 9a ba 89 1d ce bb be b2 49 3c 6a 66 76 3b
       -0.0011762134 -0.006290142 0.012310682 0.0037597665
000100 b1 04 ad bb 32 6a 54 bc 5c 6d 29 3c 7e e2 9b bc
       -0.0052801003 -0.012964772 0.010341015 -0.019028898
000110 9b 83 07 bd d1 33 0c 3d e4 12 81 ba a4 2e cd bb
       -0.033084493 0.034229103 -0.0009847549 -0.0062616635
000120 b5 58 e2 3c 4a 37 f5 3a 63 31 93 bc 71 8b a8 3b
       0.02763019 0.0018708494 -0.017967885 0.005143576
000130 11 42 a3 bb f7 b2 c5 3b 47 e6 9d 3c d9 a0 54 3c
       -0.004982241 0.006033297 0.019274844 0.012977802
000140 da a9 0b 3d 36 94 33 bc 1b d0 6a 3c 50 82 05 bc
       0.03409753 -0.010960629 0.014331843 -0.008148745
000150 a9 d6 c6 bc 63 ce dd bc 82 e8 b1 ba fb 1a ea 3b
       -0.02427228 -0.027075952 -0.0013573321 0.0071443296
000160 c6 4d a0 bc 78 ea 16 3b 90 66 a3 3c 8d 98 a1 bc
       -0.019568335 0.0023027938 0.019946367 -0.019726062
000170 28 f9 48 3c 5f 11 1c 3c 66 bc b8 bc 98 f7 14 3c
       0.012266435 0.009525626 -0.022550773 0.009092234
000180 66 a3 02 3d 3b 76 5e 3c 23 6d ea 3b 2c e1 44 bc
       0.03189411 0.013577993 0.0071541234 -0.012016576
000190 cb b4 4d 3c 2e 94 6c 3b 4a 73 ba 3a 4f 5f 62 3b
       0.012555311 0.0036099064 0.0014225033 0.0034541672
0001a0 1e 13 55 bc 05 ff 41 3a 52 62 b0 3c db b5 e5 bb
       -0.013005046 0.00074003666 0.021531258 -0.0070102043
0001b0 13 4f 8b 3c 6a 6a 89 bc c1 7f cc 3b 17 df cb bb
       0.017005479 -0.016774375 0.0062408154 -0.0062216627
0001c0 15 25 06 bd d5 6b 47 bb 3d e9 2e 3c 06 a7 99 bc
       -0.032750208 -0.0030429263 0.0106757255 -0.0187564
0001d0 00 cb 88 bc 70 d4 ae bc cb 02 68 3c 4b 49 9b 3b
       -0.01669836 -0.021341532 0.014160822 0.004738962
0001e0 88 9a ea 3b e9 f7 08 3d c2 0b 69 39 93 98 0d 3c
       0.007159535 0.03343955 0.00022224992 0.008642334
0001f0 3d 30 d1 3c 24 19 02 3c ea 2c 9e bb e3 a9 f2 3b
       0.025535697 0.007940564 -0.0048271315 0.007405506
000200 ba 71 b0 3b 7c 3a df 3c a3 98 98 ba 50 c6 63 3c
       0.005384651 0.027249567 -0.0011642169 0.013902262
000210 77 61 9a bc cc 9d a8 bc 88 26 56 bc da c6 17 bc
       -0.018845303 -0.020583056 -0.01307071 -0.0092637185
000220 31 1b 76 bc ac ef 10 3a 87 05 8e 3c e6 44 12 3c
       -0.015021131 0.0005528878 0.01733662 0.0089275595
000230 54 fa 67 39 72 2b 1e bc 88 40 65 3c 8d 88 bc bc
       0.00022123131 -0.009653913 0.013992436 -0.023014331
000240 20 57 04 bc 71 40 b7 3c d3 cd a3 3c 39 6d 4a bc
       -0.008077413 0.022369595 0.019995606 -0.012355142
000250 78 db 5e 3c a9 39 ea 3c e5 71 cd bb d7 71 66 3b
       0.01360213 0.028591948 -0.006269681 0.0035163069
000260 d2 b8 f3 3b 4f 48 ce bb 22 4a 99 bc 30 74 ec bb
       0.007437804 -0.006295241 -0.018712107 -0.007215999
000270 5f fc b5 3c ca 8b 69 3b 03 c8 18 3d 8b 7b 88 3c
       0.022215066 0.00356363 0.03730012 0.016660472
000280 16 f6 31 bc 0c 6a fa 3c 28 16 59 3c 21 c9 9b bb
       -0.010861894 0.030568145 0.013249911 -0.004754201
000290 80 6f 60 bc 6b ff 10 3c be 7c be 36 1b 89 b8 bc
       -0.013698459 0.008849959 5.676963e-06 -0.022526314
0002a0 58 4c 92 3c 6e d2 ae 3c 76 21 b3 bc 9d 93 4e bc
       0.01785867 0.021340575 -0.021866541 -0.012608436
0002b0 71 e1 d5 3c 8b 6c 39 bc 79 ae 64 3c ba 50 60 bc
       0.026108475 -0.011317383 0.013957613 -0.013691122
0002c0 b6 06 f0 3b a7 33 cb bc f1 3a 69 bb 2f 65 06 3d
       0.0073250188 -0.024804903 -0.003558811 0.03281134
0002d0 5d 83 12 bc cf ee 3e bd 3b 37 bb 3c 1e 64 f4 bb
       -0.008942452 -0.046614464 0.022853484 -0.007458224
0002e0 66 44 02 3c 5e 29 ce 3a f7 a4 e7 3b 2e 43 ee 3b
       0.007950878 0.0015728881 0.007069226 0.007271192
0002f0 a0 e1 11 bc bb 1e 29 bb 31 77 48 3c 57 68 cc 3c
       -0.008903891 -0.002580567 0.012235449 0.024952097
000300 04 f7 fe 3c 4c ee 15 3c 68 18 a7 bc 30 bf d3 bb
       0.031123646 0.009151053 -0.02039738 -0.0064620003
000310 3e 36 2d 3a 08 4c 8c bc 7b f8 6a bb 68 b8 7b bc
       0.0006607509 -0.017126098 -0.0035853672 -0.01536379
000320 86 42 32 bc 34 c6 6b bc c9 04 89 bc b3 82 b7 3c
       -0.010880118 -0.014390517 -0.016725915 0.02240119
000330 2e b0 98 bb 55 95 3b bc 85 48 a4 3c b0 e4 41 bc
       -0.004659674 -0.011449178 0.020054111 -0.0118343085
000340 fb 24 5d 3c 1a 40 83 bc 05 74 98 3c ee 9c 1e 3c
       0.013497586 -0.016021777 0.01861001 0.00968097
000350 0e 84 11 bc 72 0c e8 3b b2 e9 2a 3c b6 56 49 b8
       -0.008881582 0.0070815617 0.010431694 -4.800289e-05
000360 9e a8 12 3c 16 8e 0c bb 4b e6 26 3c 6d aa f2 bc
       0.008951334 -0.0021446995 0.010186742 -0.029622281
000370 0c a1 d8 3c 16 56 62 3a 45 b1 c3 3c c8 7e aa bc
       0.02644398 0.00086340436 0.02388824 -0.020812407
000380 d1 fc 3b bc 23 76 78 bc eb f7 41 bd 27 bd c5 3c
       -0.01147385 -0.015164885 -0.047355574 0.024138046
000390 6d 67 c5 3c 8e c8 cd 3b 22 57 35 bc db 9a 0c 3c
       0.024097169 0.0062800115 -0.011068137 0.008581842
0003a0 5f 3c 9d bc 5f ac 28 bc 0a 6a a4 3c bb 80 30 bb
       -0.019193826 -0.010295003 0.020070095 -0.0026932198
0003b0 1a a5 e6 3b c1 11 d4 bc 2d 3e 0d ba f3 30 1e bc
       0.0070387246 -0.025887372 -0.0005387988 -0.009655225
0003c0 bc 3a 02 3c 4b 09 5e 3c c9 80 83 bc 1e b3 27 3c
       0.007948574 0.01355202 -0.01605262 0.010235576
0003d0 b3 cd 93 bc e6 76 23 3d b6 f4 cb 3c 90 eb b4 bc
       -0.018042421 0.039908312 0.02489696 -0.022084981
0003e0 bd 89 d3 3b 59 08 a4 3c 8f aa 87 3c ea 32 df bc
       0.0064556287 0.020023512 0.01656082 -0.027245957
0003f0 d7 8a d1 3c 5b b3 08 bd 4f e6 d5 3c f2 51 79 bb
       0.0255789 -0.03337417 0.026110796 -0.0038043228

model_8/tf.__operators__.add/AddV2/y f4 [32]
000000 97 52 7b bc a2 06 a9 bc 70 48 aa 3c c7 46 40 bc
       -0.015339515 -0.020633046 0.020786494 -0.011735625
000010 e1 a3 a8 3c 11 da 59 3a eb d1 56 bc b4 48 8e 3c
       0.020585956 0.00083103875 -0.013111572 0.017368652
000020 81 5b 94 3c 49 b0 da bc 4a 7d 55 3b d4 ae a6 bc
       0.018110039 -0.026695387 0.0032575899 -0.020347036
000030 90 bd 6e bc 64 2a cb bc a8 4c 9b bc f6 6d 80 bc
       -0.014571562 -0.024800487 -0.018957451 -0.015677433
000040 a1 2e 78 3c 19 ee 94 3c f6 a3 d5 3b 48 ac 17 3c
       0.015147836 0.01817994 0.00651979 0.009257384
000050 04 83 81 bc a5 36 09 3b 72 66 43 bc 61 1b b8 3c
       -0.015809543 0.0020937112 -0.01192628 0.022473993
000060 1e 87 d0 3b 75 13 44 3c e5 46 86 3c 07 18 66 bc
       0.0063637635 0.01196753 0.016391227 -0.0140438145
000070 d4 b5 99 3a f3 d6 24 bc 92 a8 ad bb 0b 65 3f bc
       0.0011727163 -0.0100610135 -0.005299636 -0.011681805

model_8/tf.__operators__.add_1/AddV2/y f4 [32]
000000 e5 d4 05 3e 97 8a 30 be 64 fd 29 3e 22 65 1b 3d
       0.13069494 -0.17240368 0.16600567 0.037938245
000010 21 8b 44 be 70 07 34 be 9a 39 09 be 13 73 dd bc
       -0.19193698 -0.17580962 -0.1340088 -0.02703241
000020 b6 41 06 3e 4b 92 c6 bd ef 71 38 be c3 a2 b2 bd
       0.13111004 -0.09695872 -0.18012212 -0.087224506
000030 d2 b3 ab 3c 69 97 ba bd 71 ac bf bd 09 d2 db 3c
       0.020959768 -0.091109104 -0.093590625 0.026833551
000040 04 3b c8 bd 4a 47 fc bd a5 3f 5b bd 0e 30 f3 bc
       -0.09776881 -0.12318285 -0.053527493 -0.029686
000050 ae 53 0b 3e 3a e8 e1 bd 9b d8 75 bd 43 39 d3 bb
       0.1360614 -0.11030622 -0.060021024 -0.006446035
000060 2c ef dd bd 05 30 2d 3d ad e5 a9 3d df f4 87 bd
       -0.10836634 0.042282123 0.0829576 -0.06638502
000070 df 2a b0 3c 21 84 30 3d 54 72 07 be 4c 4b 0f 3e
       0.021504818 0.043094758 -0.13227206 0.13993567

model_8/tf.math.add_2/Add/y f4 [1, 32]
000000 d3 07 1c bc 3c ce 8c 3b ff 87 23 bc b5 d9 77 3a
       -0.00952335 0.004297046 -0.009981154 0.0009454743
000010 f2 75 12 3c 7e 83 81 3c 8c 07 12 bc dc 32 09 bd
       0.008939253 0.01580977 -0.008912932 -0.03349577
000020 5f b8 0a 3c c6 38 1a 3c 2d e4 6c 3b 11 e9 f2 3b
       0.008466809 0.00941295 0.0036146746 0.0074130376
000030 6d a8 4b bb da e5 97 bb 45 60 b2 3a 3b 7e 31 bc
       -0.0031075731 -0.0046355547 0.0013609013 -0.010833318
000040 08 bf 1e 3a 67 5b 2d bc 4b 7d e3 ba 95 3b 70 3c
       0.00060556876 -0.010580874 -0.0017356066 0.014662643
000050 d8 c8 12 3d c7 2c fb 3b f7 75 36 3c 53 71 8a bb
       0.03583607 0.00766525 0.011136523 -0.004224935
000060 dc 0c e8 bb 17 42 5f bc 09 eb a3 bc 82 25 05 bc
       -0.007081611 -0.013626597 -0.020009534 -0.008126618
000070 44 58 af bb 3a f2 39 3c e2 da 85 bb 5e f0 f5 3c
       -0.0053510983 0.011349255 -0.0040849308 0.030021843

model_8/tf.math.add_5/Add/y f4 [1, 32]
000000 47 65 93 3e 7a f1 1e bc 39 ca 2e 3d c4 6d c4 3c
       0.28788206 -0.009701127 0.042673323 0.023978122
000010 69 e6 9d 3c d8 7c 8e 3e b0 5a ab 3e 4d fd 88 bc
       0.019274907 0.27829623 0.33467627 -0.016722346
000020 52 6c 00 3c 1e 4c 54 bc 83 e1 06 3d 37 fb 9c 3e
       0.007838326 -0.012957601 0.03292991 0.30660412
000030 3c f1 3a bb 22 b1 83 3e 9b 18 31 3d 86 f0 66 3d
       -0.0028525135 0.2572108 0.043236356 0.056381725
000040 c5 08 7b 3e dd 93 b2 3e bc a5 74 3e f8 7a 97 b9
       0.24515064 0.34878436 0.23891348 -0.00028892583
000050 c4 50 aa bb 41 a2 fd 3d 17 8e bb bd 46 96 c5 3c
       -0.0051976163 0.12384463 -0.09157961 0.024119508
000060 01 cb 92 3e 0e cd 8c 3c ed 11 1b 3c 17 00 b8 3d
       0.28670505 0.017187621 0.009464723 0.08984392
000070 c6 17 c1 3d 4b 47 ef 3c 41 54 3d 3d 7b 35 36 3d
       0.094283625 0.0292088 0.04622293 0.044484597

model_8/tf.math.multiply_10/Mul/y f4 [1, 32]
000000 75 73 89 3f 80 6b 80 3f 95 25 7f 3f 03 7e 80 3f
       1.073836 1.0032806 0.9966672 1.0038456
000010 bf e7 80 3f ad 2f 77 3f ae e2 7d 3f 3c 73 78 3f
       1.0070723 0.9655712 0.9917401 0.97050834
000020 b5 ec 7e 3f 36 6d 83 3f 71 40 80 3f 27 96 7b 3f
       0.99579936 1.0267704 1.0019666 0.9827599
000030 f4 89 7f 3f 33 a3 7f 3f d3 86 7d 3f 80 72 7f 3f
       0.99819875 0.998584 0.9903385 0.9978409
000040 53 bf 7f 3f a4 3d 7f 3f 79 e5 7a 3f 23 6e 82 3f
       0.9990131 0.9970343 0.980064 1.0189861
000050 72 57 81 3f 1c 53 84 3f 7e 52 85 3f 8f 78 7c 3f
       1.0104811 1.0337863 1.04158 0.9862146
000060 19 10 7c 3f e8 5a 7e 3f 33 ee 7c 3f 0c 2f 7f 3f
       0.98462063 0.9935746 0.98800963 0.9968116
000070 6c b4 7e 3f 86 d4 83 3f ed de 7c 3f 09 96 7b 3f
       0.9949405 1.0299232 0.9877766 0.9827581

model_8/tf.math.multiply_22/Mul/y f4 [1, 32]
000000 24 8a a5 3f c9 8e 7e 3f 71 67 89 3f f6 0e 84 3f
       1.2932782 0.9943662 1.0734693 1.0317066
000010 d5 49 81 3f 53 e4 a4 3f 4e 01 b5 3f ec 91 7d 3f
       1.0100657 1.2882179 1.4141023 0.99050784
000020 e0 23 80 3f ad db 7d 3f c7 c3 85 3f 06 f8 ad 3f
       1.0010948 0.99163324 1.0450372 1.3591316
000030 08 bd 7f 3f 9c ed 9e 3f f1 f3 89 3f c1 43 88 3f
       0.99897814 1.2416263 1.077757 1.0645677
000040 cc 05 9c 3f 89 58 b9 3f d6 a2 9a 3f ef ec 7f 3f
       1.2189269 1.4480144 1.2080944 0.99970907
000050 25 57 7f 3f a2 43 99 3f a9 93 64 3f 89 5a 85 3f
       0.99742347 1.1973765 0.8928781 1.0418254
000060 d8 59 a7 3f c4 74 84 3f ed 1d 84 3f 0e e8 87 3f
       1.3074293 1.0348134 1.0321633 1.0617692
000070 2f 49 8d 3f d6 fc 83 3f e6 3a 8b 3f 59 49 8b 3f
       1.1037959 1.0311534 1.0877349 1.0881759
