ok_ada_v3.tflite (tflite, 206964 bytes, 9 tensors)

arith.constant f4 [1, 32]
00000000: edd0 17be 6847 553e b281 5dbd 6496 033c
00000010: d385 9bbe 5642 4e3e cedf 473d 38b4 9d3d
00000020: ab7c aabe 5eaa 2c3e f892 2fbe f3a6 2c3e
00000030: 9c98 263e 6810 2a3e d4d4 9abe e7fc acbe
00000040: 5ebe b1be b2eb a7be ec86 a5be ee3c 053e
00000050: dbef 953d 371a 94be 3969 013e 0441 ae3d
00000060: cf24 74be 6243 a8be 5e86 323e 8a30 9abe
00000070: fc10 103e 6f7a 3e3e c6a3 a7be 304f 203d
-0.14825793 0.2082802 -0.054078765 0.008031461 -0.30375537 0.20142493 0.04879742 0.077003896
-0.3329824 0.16861865 -0.17145908 0.16860561 0.16269153 0.16607821 -0.302405 -0.337867
-0.3471555 -0.3279701 -0.323295 0.13011524 0.073211394 -0.2892625 0.12637796 0.085084945
-0.23842166 -0.3286391 0.1743407 -0.30115157 0.14068979 0.18601392 -0.32742137 0.03913802

arith.constant1 f4 [32, 32]
00000000: 1012 2fbc abf1 fc3d 924e ecbb a7a2 14bd
00000010: d3db 973d 4fc8 11be 7183 a7bd 3fd5 fe3d
00000020: 84c2 bebd 2f11 2f3e 175b 83bc ce95 43bd
00000030: c19f 01be de7b aabd e458 09bd 245e 3c3d
00000040: bb78 693d 108d b53d 241d 163d da81 673c
00000050: ad54 003d 3f10 cbbc 3a12 18be 689f a43d
00000060: 8521 0bbe 66f7 28bd 7cc2 863d a62e 12bd
00000070: 5675 67bd 56a1 853d 6781 0abe 53a4 793d
00000080: 7315 d0bd c4d6 40bd c306 653a c346 1e3a
00000090: 60c9 0b3d e1b2 273e ca0e 12be 0ec5 c23d
000000a0: 335a 333e ea33 f2bd 3be1 4a3e 1e25 0fbe
000000b0: 4541 29bc 1790 f43c 3684 ccbd c6b9 09be
000000c0: 14d0 123e 1845 ff3b 5cde 0cbe 1372 063e
000000d0: 9686 e1bd fb3e 873e 675b b13d f6d6 4b3d
000000e0: be46 32be a01d 3d3e 6e5d 053e 7ef8 793d
000000f0: ab4f f0bd 28fb 7abd 8e68 e5bd 98fc 0dbe
00000100: 38f2 5ebc ba7c 0d3e 9c60 e73d fb16 0ebe
00000110: d0f1 e3bd ac3f a4bc 60d0 94bd f0c7 d8bc
00000120: 2690 28bc 9273 213d 0c96 d1bd 8f30 2dbe
00000130: cca2 043e 3802 99bd 14e2 0abe 1307 783c
00000140: d415 b73c 103d 123d c375 30bc 52b3 e6bd
00000150: 2ce2 b83d f098 4dbe 2c68 9ebd df29 42bd
00000160: 769d ed3d 6294 e83c b86e 14be 9e93 1c3e
00000170: 2223 01bd bf54 0e3e 5bd1 d1bd 7d59 023d
00000180: e285 9ebc 5fcd cdbd 2372 04be 205f 13bd
00000190: 560e 17be 8818 1cbe 6a8a 1b3e 98c9 b83d
000001a0: 147e 233e 737f f2bd a2a9 7b3d b3eb 3a3e
000001b0: f55b 28be d38d a9bd 70f2 2fbe c8c9 8cbd
000001c0: 6424 fcbb 1728 8bbd 64ca 9abd 9ae0 06bd
000001d0: 27c7 de3d d66e 363d 880a af3d 4c89 0abe
000001e0: 2699 8cbc 6e3f 9dbd 7758 033e b062 fe3c
000001f0: 2e66 34bd c6f4 163e 026b f6bd c328 613d
00000200: 4252 ad3c ce34 3c3e 14db 873d 68b5 b03d
00000210: 64a3 383d 96e2 373d b3bf 7b3c fbfa 89bd
00000220: 398b 2abc 4c7d 4cbd 10d9 53be ddcf 9cbd
00000230: 92d0 80bc 2d27 95bd a6f5 1cbc ee62 883d
00000240: 63af ba3c dbcd 9cbd 3223 5bbc 425f c53d
00000250: 1644 2bbd fa1d b43c b113 143e 7882 373d
00000260: e664 a53c ff43 0cbe f003 82bd 32a1 c9bd
00000270: 5e1e a23d 57fd 08bd c21b 633d 5783 d23d
00000280: d4f6 ccbd d7d4 b93c 9459 5bbc 6f8e b63d
00000290: 7aca 0ebe 8825 4cbd ed16 1b3e 1360 613b
000002a0: b2a9 9d3d 4436 183e 9b24 7e3d 9dac 04be
000002b0: af18 df3d 8681 f7bd ecab 133e 33df c83d
000002c0: ae81 cfbb ec28 95bd 3bbc 7f3b 4bba 083e
000002d0: 26e4 453e 73cd 143e 1425 7f3d 3962 82ba
000002e0: 7ec6 eb3d 5d43 1f3e d716 64bd 7ecd b6bd
000002f0: 08d2 bdbd 9b88 453e 40cd 4eb9 c8dc f6bb
00000300: 6ea6 203e 8eab 483d e257 0e3e 0871 923d
00000310: d40d 10be 91d1 243e 78bc a0bd b8b2 3bbe
00000320: 9f6a 2e3e 92df b3bc 4485 383e 2796 21bd
00000330: c314 763d 6e30 07be 4eab 46bd 3bd8 4ebe
00000340: 36d9 0abd 1347 01be da6e 3cbd a673 84bb
00000350: 96ef efbd 8a90 39be c2c4 4dbd 4862 a6bd
00000360: c499 18be 1b6a e33d 5ecd b13c 02ab 0d3e
00000370: 8ed1 1d3e 64bd 89bc 6672 9d3d 7260 93bd
00000380: 22be f7bd 7e48 bebd e3af b83c bebc e03d
00000390: 9bdb b03d 8fcc 6a3c 50a5 973c 7c53 393c
000003a0: 6895 403d c76a 8dbd ba89 debd 63a1 d43c
000003b0: 14e0 a3bd ebe4 2bbe 1e03 a3bd 76d7 0cbe
000003c0: 6a18 7f3d 4c4b ff3d 26ee ae3c 9a2c b3bc
000003d0: 20d5 193e 90e2 0bbe 1e8e 183e 47be eabd
000003e0: 8058 abbd ee8a 0ebe 3658 f2bd a68e 5abd
000003f0: 6210 253e 1054 ae3c 4202 b1bd 182c 9b3d
-0.010685459 0.12350782 -0.0072115147 -0.03628793 0.07414975 -0.14236568 -0.08179367 0.12443017
-0.09314445 0.17096399 -0.016034646 -0.047750287 -0.12658598 -0.08324407 -0.03353204 0.045988217
0.056999903 0.08864796 0.036648884 0.01413008 0.031330753 -0.02478802 -0.14850703 0.08038217
-0.13587005 -0.041251563 0.06580064 -0.03568902 -0.056508385 0.06524913 -0.13525926 0.060947727
-0.10160341 -0.047079816 0.00087366643 0.0006037766 0.034127593 0.1637683 -0.14263454 0.095102414
0.17514877 -0.11826308 0.19812481 -0.13979003 -0.010330503 0.029853864 -0.09986155 -0.13449773
0.14337188 0.007790219 -0.13756698 0.13129453 -0.11011998 0.26415238 0.08660012 0.04976555
-0.17409799 0.18468332 0.13023922 0.061027996 -0.117339455 -0.061274678 -0.11201583 -0.13865888
-0.013607554 0.1381711 0.11297724 -0.13875954 -0.111301064 -0.020049892 -0.07266307 -0.026462525
-0.010288274 0.039416857 -0.10233697 -0.16913055 0.12952727 -0.07471126 -0.13562804 0.015138405
0.022349276 0.035702765 -0.010770264 -0.112646714 0.09027514 -0.20077872 -0.07734713 -0.047403213
0.11602299 0.028391067 -0.14495361 0.15290686 -0.031527646 0.13899516 -0.102450095 0.031823624
-0.01935095 -0.10048937 -0.12934165 -0.03597939 -0.14751562 -0.15243733 0.1518952 0.09022826
0.15966064 -0.11840715 0.06144107 0.18253975 -0.16441329 -0.08279004 -0.17182326 -0.06874424
-0.007694768 -0.06794756 -0.07558134 -0.03292904 0.10877829 0.044539295 0.085469306 -0.13528937
-0.01716287 -0.07678114 0.12826715 0.031052917 -0.04404276 0.14741811 -0.12032129 0.054970514
0.021157388 0.18379518 0.06633583 0.086283505 0.045077696 0.044893824 0.015365529 -0.06737324
-0.01040917 -0.04992418 -0.20688272 -0.07656834 -0.015724454 -0.07282863 -0.0095800515 0.06659494
0.022788709 -0.07656451 -0.01337509 0.096373096 -0.04181298 0.02198695 0.14460637 0.04480216
0.020189714 -0.13697813 -0.06348407 -0.09845199 0.07915948 -0.03344473 0.055446394 0.10278957
-0.10008016 0.022684498 -0.013388056 0.08913886 -0.13944426 -0.04984048 0.15145464 0.003438954
0.076983824 0.1486445 0.06204663 -0.12956472 0.1089338 -0.120852515 0.14421052 0.09808197
-0.0063325977 -0.07283196 0.0039022106 0.13352315 0.19325313 0.14531498 0.06229122 -0.0009947486
0.11512469 0.15553041 -0.055685844 -0.08925913 -0.09268576 0.19290392 -0.00019722153 -0.0075336434
0.15688488 0.048991732 0.13900712 0.07150465 -0.14067775 0.16095568 -0.078484476 -0.18329895
0.1703286 -0.021957193 0.18019587 -0.039449837 0.060078394 -0.13202068 -0.048503213 -0.20199673
-0.033898555 -0.12624769 -0.046004154 -0.0040421067 -0.11715619 -0.18121544 -0.05023647 -0.081242144
-0.14902407 0.111042224 0.021704372 0.13834766 0.1541197 -0.016813941 0.076878354 -0.0719613
-0.12096812 -0.092911705 0.022544807 0.109735 0.086356364 0.014330997 0.018511444 0.011311408
0.047017485 -0.06905132 -0.10866113 0.025955861 -0.08001724 -0.16786544 -0.07959579 -0.13754067
0.062279142 0.124655336 0.021353792 -0.021871854 0.15022707 -0.13660645 0.14897963 -0.11462074
-0.083664894 -0.13920185 -0.11833231 -0.053358696 0.16119531 0.021280318 -0.08643009 0.075767696

arith.constant2 f4 [32, 1536]
00000000: 0824 0c3a 87ed a6bc c376 88bc 2a5e ecbc
00000010: 7e1b 80bb 6e88 22bc 7a3e 81bb 0a1d a6bc
00000020: 8881 f0bb a83f d5bc d76d 50bc 97ca 63bc
00000030: 3846 c0bc 8ad7 ac3c b359 b03c f595 943c
00000040: a8ed 40bb 620f 383c f22b 9f3c e7ca 283c
00000050: 13d7 983c dcef a73c 2b4c 813b 6770 6f39
00000060: 32cd 9d39 facf a2bc 60a5 bc3b e622 433c
00000070: f785 b53c d7b2 05bc 88e8 1bbc c2a9 d53c
00000080: 86c3 b1bc 3e32 5a3c 9084 223c e030 183d
00000090: 766e 213c aeb6 2f3c 2e5c c4bc 8016 edb9
000000a0: 5bec 34bc 5801 c6bc ce14 69bc befc 65b9
000000b0: 039a 77bc 40c1 ad38 c00d 0a3c 9346 7c3c
000000c0: ccc7 eb3b 7826 323d 5042 633c 2c2b 0c3c
000000d0: 03ea 00bd 1224 213c 0962 933c 908b 7a3c
000000e0: 6b35 41bb 7338 5dbb ce91 29bc b4ab 6cbc
000000f0: 9b46 b7bc c3ff 9cbc 9b8b b83b 3ae1 80bc
00000100: df30 803c ba5a 41bc 6095 db3c 1f92 6e3c
00000110: 4b54 4f3c 25eb 9e3b f767 3ebb c8e5 07bc
00000120: af4b af3a ba9e 923c 74f7 b53c b47f b4bb
00000130: c0e0 8ebc 6c98 3fbc 31e7 893c 368c dd3b
00000140: 547f 9c3a 0245 39bb 4cdd c03c c367 e33b
00000150: 9b62 2cbc cf0d 8c3b 04ad d2bc 97fb 4bbc
00000160: 5833 bf3c f5da 1ebc c63d e53c d423 4fbc
00000170: cac2 b3bc 532e b3bb 1f92 6b39 171d 913b
00000180: d064 143d 2323 65bc b773 113c 97c2 033b
00000190: a832 ae3c ca2f 86bc d49b 7dbb da57 a6bc
000001a0: 4082 d7bc 0440 93bc 5047 783b 9f4f 18bc
000001b0: 208b 5cbb df9e 2f3d 3eae 8f3c d828 fdba
000001c0: 98b9 26bb ae35 123d 5e56 b83c 32e0 8aba
000001d0: f86e c93b aad8 d2ba aad4 43bc 9588 29bc
000001e0: c44f 223a 06a8 9cbc 0813 673b 08a2 803c
000001f0: 74ac 853c 775b 89b9 c3ba a1b9 6e16 a83c
00000200: 78fc ac3b 3486 ac3c d01a a4bc aaf8 173b
00000210: 1335 da3b d7dd 42bb 36d4 34bc 5902 90ba
00000220: fa4a 983c d8e5 343c 1090 2ebb 9ae1 a33c
00000230: eea9 d1bc deb8 d1bc d231 4e3b db5e 6dbc
00000240: 9bab ebbc 15d9 913c db83 b33c ac7e 583c
00000250: 0e00 8f3b b3b7 873c 1063 d7bc 7c1e 493c
00000260: 182a 89bc aedf 77bc e241 db3c 047a e53a
00000270: b097 1e3c 5b7c 35bb 285a aabc 4c2d 42bc
00000280: 6fc8 9d3c 8639 043c f6b8 5b3c bc51 c93a
00000290: da61 0e3c a06f 9dba 53fe 87bc aa1e ba3c
000002a0: 8804 42bc 6ac7 b23a 7e27 d23c 25c7 0dbc
000002b0: bfc9 0ebc 8e45 c83c 1cc9 7ebc 562e 603b
000002c0: 96b7 25bc 364f 193c 13bd 75bc 3fc0 a63c
000002d0: 44f2 f43a 965d 9ebc 6c9e 913c 9684 423c
000002e0: 9778 b53c 6a81 053c 8cb7 b43c d275 f4bb
000002f0: 3851 8ebc c69f 763a c3ae d63b 2e4a 02bc
00000300: eb47 bc3c ab65 bf3c 2cab 1fbb ce1c cc3c
00000310: 98e4 cabb 0a38 473c b27c a43c 10c8 6a3c
00000320: 5839 95bc fcce b63c 6f7c 86bc f3cd db3c
00000330: de27 90bb f834 023c 894e 23bc 0b26 89bc
00000340: 1290 bdbc 2826 313c ceb8 02bc 6cfd 1bbc
00000350: ca75 1ebc 5318 7c3b 23ed 83bc 2e99 c7bb
00000360: 33d4 87bc 584d e23c 83db f9bb 261e 8abc
00000370: 9eaf 86bc f8f3 dfbb e08b c43c 6ec7 98bb
00000380: 1b76 58bc 48a5 803c dc54 a03c 42d1 073d
00000390: abfc 9c3c 83b9 c43c 063c 823b d49f 80bc
000003a0: 246a c1bc e83e 5ebc a6f7 123c 338a c93a
000003b0: 05a1 a2bc c7e9 54b8 2715 9dbc be62 0fbd
000003c0: e0df 14bd 6a00 f33c 7330 733c d709 973c
000003d0: 3bb9 6e3c 3adf 3539 572f 073c a03b ad3c
000003e0: 2a31 0cbc feed 6dbc 5478 13bc 7bec d8bb
000003f0: f410 3ebc 6ac9 e2bc 1424 5a3c 0abd 9e3b
0.0005345945 -0.020376934 -0.016658193 -0.028853495 -0.0039095273 -0.009920223 -0.0039442154 -0.020277519
-0.00733966 -0.02603133 -0.0127215 -0.013903282 -0.023470983 0.02109887 0.021527147 0.018137911
-0.002943853 0.011234136 0.019430134 0.010302282 0.018657243 0.020500116 0.0039458475 0.0002283469
0.00030098256 -0.019874562 0.005757019 0.011910176 0.022158606 -0.0081603145 -0.009515889 0.026081923
-0.021699678 0.013317643 0.009919301 0.037155986 0.009852996 0.010724707 -0.023969736 -0.00045220926
-0.01104268 -0.024170563 -0.014226152 -0.00021933296 -0.015112403 8.2852785e-05 0.00842613 0.015397686
0.0071954485 0.043493718 0.013870791 0.008555215 -0.03147317 0.00983526 0.017991083 0.015292063
-0.0029481302 -0.003375557 -0.010349704 -0.014445234 -0.022372534 -0.019164925 0.0056318766 -0.015732396
0.015648304 -0.011801416 0.026804626 0.014561205 0.012654374 0.0048498088 -0.0029053667 -0.00829453
0.0013373996 0.017897952 0.022212721 -0.0055083875 -0.017441154 -0.011694055 0.016833873 0.006761099
0.0011939802 -0.0028269892 0.023543023 0.0069398596 -0.010521556 0.004274107 -0.025717266 -0.01245012
0.023339912 -0.009695758 0.027983557 -0.012642819 -0.021943469 -0.0054681688 0.00022465781 0.0044285166
0.036228955 -0.013985428 0.008877686 0.0020104998 0.02126439 -0.01638021 -0.0038697617 -0.020305563
-0.026307225 -0.017974861 0.0037884302 -0.009296327 -0.003365226 0.04287612 0.01753914 -0.001931454
-0.0025440212 0.035695724 0.02250212 -0.001059538 0.0061472617 -0.00160863 -0.0119525585 -0.010347505
0.00061916956 -0.019123089 0.0035259146 0.015702263 0.016317584 -0.00026198823 -0.0003084746 0.020518508
0.00527912 0.021060087 -0.020032316 0.0023188987 0.006659159 -0.0029734278 -0.011036923 -0.0010987028
0.01859044 0.011041127 -0.002663616 0.020005036 -0.025593724 -0.025600847 0.00314628 -0.014487947
-0.028768351 0.017803708 0.02191346 0.013213795 0.00436402 0.016567087 -0.026292354 0.012275334
-0.016743705 -0.015129013 0.026764814 0.0017507677 0.00967972 -0.002769253 -0.020794943 -0.01185162
0.019260613 0.008070355 0.013410797 0.0015359442 0.008690322 -0.0012011416 -0.016600763 0.0227197
-0.011841901 0.0013639752 0.025653597 -0.008653437 -0.008715092 0.024447229 -0.015550878 0.0034207306
-0.010114571 0.009357264 -0.014998692 0.020355342 0.0018687923 -0.019331735 0.017775737 0.011872431
0.022152228 0.0081485305 0.022060178 -0.0074603343 -0.017372712 0.00094079634 0.006551595 -0.007952256
0.022983512 0.023363909 -0.00243635 0.024916079 -0.0061918013 0.012159357 0.02007899 0.014329925
-0.01821582 0.022315495 -0.016416756 0.026831603 -0.004399284 0.007947199 -0.009967455 -0.016741773
-0.023139987 0.01081232 -0.007978631 -0.00952087 -0.009671638 0.0038466647 -0.016104287 -0.0060912585
-0.016580677 0.027624771 -0.007625045 -0.016860079 -0.016441163 -0.0068345033 0.023992479 -0.0046624457
-0.013211752 0.015703812 0.019571714 0.03315855 0.01916345 0.02401424 0.0039744405 -0.015701212
-0.023610182 -0.013564803 0.008970177 0.001537627 -0.01985217 -5.076246e-05 -0.019175125 -0.035006277
-0.036346316 0.029663283 0.014843094 0.01843731 0.01457053 0.00017344664 0.008251033 0.021146595
-0.0085566435 -0.014522074 -0.009000856 -0.0066199875 -0.011600722 -0.027683932 0.013314266 0.0048443126

model_8/tf.__operators__.add/AddV2/y f4 [32]
00000000: 7be9 bdbc ef5c b13c 50bf 8f3c 9351 48bc
00000010: 2ef1 1b3a bb62 d2bb cd84 16bc d1b2 813c
00000020: b44d 8c3c 233d f6ba 0b34 d0bc 05db 8a3c
00000030: 50e7 b53c 143d 8d3c 8c88 a73c 7327 0cbc
00000040: a073 c2bc b8e8 b23c 0e07 15bc 3ccf 8e3c
00000050: 1017 4a3c 0c0b 8a3b 01a9 803c 15ea a33c
00000060: 22ed c83b e8f8 43bb cade 823b d4bb 47bc
00000070: f744 1abc 6af5 cfbc 3426 ef3c 7c3b a73b
-0.023182621 0.02165076 0.01754728 -0.01222648 0.00059487193 -0.006420461 -0.009186936 0.015832337
0.017126895 -0.0018786531 -0.025415441 0.01695014 0.022205025 0.017241038 0.020450853 -0.008554327
-0.023736775 0.021839485 -0.00909592 0.017432801 0.0123346 0.0042127427 0.015705587 0.02000908
0.006131784 -0.0029902998 0.0039938437 -0.012190778 -0.009415857 -0.025385577 0.029193021 0.0051035266

model_8/tf.__operators__.add_1/AddV2/y f4 [32]
00000000: 2a2e 2bbe 51a0 88bb ca08 103d 0632 2c3d
00000010: a364 cdbc 0846 d8bb 1f36 96bd 07a7 19be
00000020: 9f9f ac3d bbe3 8fbd be76 233e 6ef8 13be
00000030: 02cf a2bd 6808 f93c daf3 393e e683 ed3d
00000040: 3aa0 7abd f02b eabc 9f15 093e 0a66 1f3e
00000050: 32a3 dcbd 1b38 78bd f95d 19bd 9e21 d83d
00000060: 129b 21bc cb39 173e cbea f93d 2adb 1f3e
00000070: f871 cd3d b473 243d 5f3f b9bd fc8f f5bc
-0.16716829 -0.004169502 0.035164632 0.042039894 -0.025072401 -0.0066001453 -0.073345415 -0.15005122
0.08428883 -0.07025858 0.15963265 -0.14450237 -0.0794964 0.030399516 0.18159428 0.11597423
-0.06118796 -0.028585404 0.13387154 0.15566269 -0.107733145 -0.06060038 -0.037443135 0.10553287
-0.009863632 0.1476814 0.12202986 0.15610948 0.100315034 0.040149406 -0.0904529 -0.029975884

model_8/tf.math.add_2/Add/y f4 [1, 32]
00000000: 0e0e 8dbc 46c6 943b 8bb3 9e3b ac7a f13b
00000010: 8067 8b3c cff2 55bc eca6 8ebc 3ed5 633c
00000020: c027 85bb 4a4c 5dbc 4790 e3bb 2673 893c
00000030: 1ab7 7fbc 4e09 b23c ce70 52bc 0371 153c
00000040: b7be 96bb 6018 a43b 1e74 a53b 78f4 c53a
00000050: fa32 f7ba 0700 6cbc 0670 b63b c6a7 7fbc
00000060: fec4 89bc 133d e0bb 9cf9 6dbc 3ad3 403c
00000070: 479d a53c 539b 65bb 14da 033d e4e3 81bc
-0.017218616 0.0045402376 0.0048431805 0.00736936 0.017017126 -0.013058378 -0.017413579 0.013905821
-0.0040635765 -0.013506958 -0.0069446894 0.01677854 -0.01560762 0.021732952 -0.012844278 0.009121182
-0.0046003717 0.0050077885 0.0050492426 0.0015102765 -0.0018859797 -0.014404303 0.0055675535 -0.015603965
-0.016817566 -0.006843218 -0.014524844 0.01176911 0.020216597 -0.0035035207 0.032190397 -0.015855737

model_8/tf.math.add_5/Add/y f4 [1, 32]
00000000: 02a7 a23a 560e 523d 396c a63c 6ee0 4cbb
00000010: 20af 803e 489f 003d 0c5e 113d 237f f43d
00000020: aaf5 5c3e f2ca f13d a342 db39 8888 0a3d
00000030: 4be0 a83d 320b 2dba 5832 643e 8467 903e
00000040: 6b4b 563e fbca 8d3e 18cf 583e 3e48 d83c
00000050: 5630 233d 98c0 813e c89d 5f3d 9a35 c63d
00000060: b734 733e 8af2 573e c22c 263d e4c0 703e
00000070: a79b 0c3d 2821 923c 90ae 8c3e b833 fd3c
0.0012409391 0.051283203 0.020315276 -0.00312617 0.2513361 0.031401902 0.03549008 0.11938312
0.21578088 0.11806287 0.00041820583 0.033821613 0.082459055 -0.00066010945 0.2228483 0.28203976
0.20927207 0.27693924 0.2117275 0.026401635 0.03984102 0.2534225 0.05459383 0.096781924
0.23750578 0.21088615 0.040570028 0.23511082 0.03432813 0.017838076 0.2747693 0.03090845

model_8/tf.math.multiply_10/Mul/y f4 [1, 32]
00000000: a610 7a3f 9004 7e3f 3402 803f 1eff 813f
00000010: 5cf4 823f da65 7f3f 2f39 7f3f 8cd3 803f
00000020: 86aa 833f ee8a 7f3f e080 823f d414 813f
00000030: df2d 7e3f 4cb3 863f 76cf 7a3f a287 833f
00000040: da58 813f 8618 7c3f dbbe 763f 9c80 803f
00000050: aecd 7b3f 0805 803f 0f73 7b3f 9b18 7f3f
00000060: 5e51 7d3f bd1b 803f e231 7f3f 9ed6 7f3f
00000070: 3f62 7e3f e007 823f 661a 843f 6311 7f3f
0.97681653 0.9922571 1.0000672 1.015598 1.0230823 0.9976479 0.9969663 1.0064559
1.0286415 0.99821365 1.019558 1.0084481 0.99288744 1.0523467 0.9797281 1.0275767
1.010524 0.9847492 0.9638497 1.0039248 0.9836072 1.0001535 0.9822244 0.9964692
0.9895228 1.0008465 0.9968549 0.99936855 0.9936866 1.0158653 1.0320556 0.99635905

model_8/tf.math.multiply_22/Mul/y f4 [1, 32]
00000000: 481d 803f b6f3 8a3f fbd1 813f 70d3 793f
00000010: 664c a53f 35df 853f ec41 843f 8825 873f
00000020: 201e 9b3f b677 993f c00a 803f 720f 8b3f
00000030: dbff 893f cbe3 7f3f 2f16 9b3f fa72 b03f
00000040: 41e1 983f ffe9 ad3f 8a74 983f fee2 843f
00000050: 9f9c 873f c83f a53f df96 883f 86d5 833f
00000060: 8798 9b3f 9675 983f 68c1 863f 4cc3 9f3f
00000070: d9ea 863f d917 843f a7a3 ad3f a8e2 873f
1.0008936 1.0855625 1.0142206 0.97588253 1.291394 1.0458742 1.0332618 1.0558329
1.2118568 1.1989658 1.0003281 1.0864089 1.0781206 0.9995696 1.2116145 1.3785088
1.1943742 1.3587035 1.1910565 1.0381773 1.0594672 1.291009 1.0671042 1.0299537
1.2155923 1.1910884 1.0527773 1.2481475 1.054042 1.0319778 1.3565568 1.0616045
